a_current.pth (torch_old, 57555 bytes, 18 tensors)

layers.0.weight f4 [33]
0	0x3f45c0a7	0.7724709
1	0x3e9e4640	0.30912971
2	0x3f4b64fd	0.7945097
3	0xbcd70e87	-0.026252044
4	0x3c7abba4	0.015303526
5	0xbde84743	-0.11341717
6	0x3c73e792	0.014886754
7	0x3d85382f	0.06504857
8	0x3d9fad87	0.077967696
9	0x3d46a0bd	0.048493136
10	0x3d791eaf	0.060820278
11	0x3d99924a	0.074986055
12	0x3d4d41c5	0.05011155
13	0x3f8df15c	1.1089282
14	0x3f0796e5	0.5296462
15	0x3f920150	1.140665
16	0x3df6b452	0.12046112
17	0x3d792978	0.060830563
18	0x3dc549da	0.09633227
19	0x3e04b13d	0.12958236
20	0x3e123e03	0.14281468
21	0x3dda7869	0.10667498
22	0xbd4b792e	-0.049676113
23	0x3f0c50b8	0.5481067
24	0x3e490289	0.19629873
25	0x3ec5176b	0.3849443
26	0x3f92bb51	1.1463414
27	0x3f7d5d64	0.9897063
28	0x3f86d5fe	1.0534055
29	0x3e34804c	0.17627066
30	0x3f036990	0.5133295
31	0x3e1e5570	0.1546228
32	0x3f916de1	1.1361657

layers.0.bias f4 [33]
0	0x3c2e811d	0.0106509
1	0xbdd61ceb	-0.104547344
2	0xbd9950a2	-0.074860826
3	0xbcd47481	-0.02593446
4	0xbd3518ab	-0.04421298
5	0x3c731f0e	0.014838947
6	0xbd1d9802	-0.038475044
7	0xbd7f4a90	-0.062326968
8	0xbd1131ba	-0.035447814
9	0x3db990ac	0.09060797
10	0x3c452d04	0.012034658
11	0x3cc414f2	0.023935769
12	0xbe5f03a8	-0.21778738
13	0x3c2533ab	0.010083119
14	0x3df99f30	0.12188566
15	0xbc4f37b5	-0.012647559
16	0xbdb5d859	-0.08879156
17	0x3e6b7852	0.22995117
18	0x3c389166	0.011265134
19	0x3ccf50c9	0.025307076
20	0xbc89f4b1	-0.01684031
21	0xbde8dd4f	-0.11370336
22	0x3cdd477f	0.027011631
23	0x3e5ad160	0.21368933
24	0xbe13fa8a	-0.14451042
25	0x3d5cbc1c	0.053890333
26	0xbe89795d	-0.26850405
27	0x3e3ed094	0.18634254
28	0x3e8525d5	0.26005426
29	0x3e1e8ad0	0.1548264
30	0xbe65ccdb	-0.22441427
31	0xbeb327e2	-0.34991366
32	0x3e99d493	0.30044994

layers.0.running_mean f4 [33]
0	0xbdd9793c	-0.10618827
1	0xc03423b8	-2.81468
2	0x3b4ca01c	0.0031223362
3	0x3f6bbc44	0.92084146
4	0xbc61bd18	-0.013777994
5	0x3af18773	0.0018427208
6	0x3b680650	0.0035404153
7	0xbb0147e6	-0.0019726693
8	0x3b6f6877	0.0036530772
9	0xbbfe932c	-0.007769009
10	0xbc801cf7	-0.015638812
11	0x3be4dba0	0.006984189
12	0x3b91e3bd	0.0044521973
13	0x3e3a052e	0.18166038
14	0xc03ec932	-2.98103
15	0x3dfe49ef	0.124164455
16	0x3cc8ec7c	0.024526827
17	0xbcf32974	-0.029682852
18	0x3d27403a	0.040832736
19	0xbe40a804	-0.18814093
20	0x3dceb852	0.1009375
21	0x3d0322c9	0.032015596
22	0xb7195279	-9.138713e-06
23	0xbb152c6c	-0.0022762073
24	0x3e061397	0.1309341
25	0xbc5388e5	-0.012911056
26	0xbd70bd3c	-0.058774218
27	0xbf7ffffc	-0.99999976
28	0xbda37150	-0.07980597
29	0x00000000	0.0
30	0x3f7ffffc	0.99999976
31	0x00000000	0.0
32	0xbc8d436c	-0.017244063

layers.0.running_var f4 [33]
0	0x406c2e19	3.6903136
1	0x3e2a143f	0.16609286
2	0x40881971	4.2531056
3	0x3a5cebc6	0.0008427467
4	0x3d78db50	0.060756028
5	0x3b75d406	0.003751041
6	0x3db0eb20	0.086385965
7	0x3e43f9e7	0.19138299
8	0x3d3e542e	0.046467
9	0x3dd95ed2	0.10613789
10	0x400457af	2.0678518
11	0x3ee798b0	0.4523368
12	0x40031e71	2.048733
13	0x41b2d74c	22.355125
14	0x3f59047f	0.84772485
15	0x41bf6bbc	23.927605
16	0x3dc21a1b	0.094776355
17	0x3eb85d58	0.36008716
18	0x3da0252f	0.07819592
19	0x3edb5055	0.42834726
20	0x402460db	2.5684116
21	0x3fca5a5f	1.5808829
22	0x3ecf0c78	0.404392
23	0x4111cec1	9.112977
24	0x4070f3c0	3.7648773
25	0x4109ea8e	8.619764
26	0x41fe1ea3	31.76496
27	0x00000004	6e-45
28	0x4200c035	32.187702
29	0x00000004	6e-45
30	0x00000004	6e-45
31	0x00000004	6e-45
32	0x3ea79136	0.32727975

layers.1.weight f4 [128, 33]
0	0x3ea18f7e	0.31554788
1	0x3da3c358	0.07996243
2	0xbf16eacb	-0.58952016
3	0xbe063e0e	-0.1310961
4	0xbeaa09ca	-0.33210593
5	0x3cacd6ef	0.021098582
6	0xbddbea29	-0.10738022
7	0x3c771e5b	0.015082921
8	0x3df75321	0.120764025
9	0x3df40e94	0.11916843
10	0xbd8d8054	-0.06909242
11	0x3e5de101	0.21667863
12	0xbe15f7cb	-0.14645307
13	0xbe8d49fc	-0.27595508
14	0x3c9aea2e	0.018910494
15	0x3d5c2a26	0.053751133
16	0xbe9cb213	-0.3060461
17	0x3dc1a41f	0.09455132
18	0x3f1473b8	0.5798907
19	0x3eca3b28	0.39498258
20	0x3e47eb6b	0.19523399
21	0xbeeb0b58	-0.45907092
22	0xbea370a1	-0.31921867
23	0xbf01620f	-0.5054025
24	0x3ea8cb30	0.3296752
25	0x3e52912d	0.20563193
26	0xbe056720	-0.1302762
27	0xbf21b9a7	-0.6317391
28	0xbd386fbc	-0.045028433
29	0xbf1384fe	-0.57624805
30	0x3ebfd907	0.37470266
31	0x3f130d48	0.5744214
32	0x3e16742a	0.1469275
33	0x3e250fe0	0.16119337
34	0x3dcf71b2	0.101291075
35	0x3d4efd20	0.050534368
36	0xbea121ba	-0.31471044
37	0x3e0cc24e	0.13745996
38	0x3d6ca250	0.05777198
39	0x3e2519fb	0.16123192
40	0xbd88c62e	-0.06678425
41	0xbd36b68a	-0.044607677
42	0x3edc0341	0.42971233
43	0x3e9c3b1c	0.30513847
44	0x3ee19e9d	0.44066325
45	0xbd668158	-0.056275696
46	0x3d642d05	0.055706996
47	0xbd72e512	-0.05930049
48	0x3ef9e8e4	0.48810494
49	0xbee8fbc3	-0.4550458
50	0xbe29e685	-0.16591842
51	0x3bfe71fb	0.0077650524
52	0xbd1d5c9e	-0.038418405
53	0x3e17995c	0.14804596
54	0xbf2b4cdf	-0.6691417
55	0x3bff4c8c	0.0077911075
56	0x3d7c28a2	0.061562188
57	0xbd0fb805	-0.035087604
58	0x3edfa4d5	0.43680444
59	0x3e202d51	0.15642287
60	0xbe160f22	-0.1465421
61	0x3dd4ff30	0.10400236
62	0xbe99433a	-0.29934102
63	0x3d313039	0.04325888
64	0x3ee30337	0.4433839
65	0xbea9b02b	-0.33142218
66	0xbec166bf	-0.37773702
67	0x3e841167	0.25794527
68	0xbe8f1199	-0.27943113
69	0x3e0c522b	0.1370322
70	0x3e8c7106	0.2742998
71	0x3f1924c4	0.59821725
72	0xbebf0aa0	-0.37312794
73	0xbca88975	-0.020573357
74	0x3ef1fd6e	0.47263664
75	0x3dac11e2	0.084018484
76	0x3e2a8542	0.16652396
77	0xbe108f4e	-0.14117166
78	0xbd988c0b	-0.07448586
79	0x3f184de1	0.59493834
80	0x3e8cf218	0.27528453
81	0x3c817856	0.015804451
82	0x3d4d0de8	0.05006209
83	0x3d52f42f	0.051502403
84	0x3d45abe8	0.048259646
85	0xbdf84008	-0.12121588
86	0x3eeb62f5	0.45973936
87	0x3dbeea29	0.09322006
88	0x3e21fc20	0.15818834
89	0x3ebe623b	0.3718432
90	0xbde68dd3	-0.112575196
91	0x3e8788d7	0.26471588
92	0xbdbd7af3	-0.09251966
93	0x3dda60e6	0.10663013
94	0xbed98018	-0.4248054
95	0x3e1abf08	0.15111935
96	0x3e3fad25	0.18718393
97	0xbb9d1a95	-0.0047944286
98	0x3e883f33	0.26610717
99	0x3ebf627b	0.37379822
100	0x3eb3f880	0.35150528
101	0x3eff40e8	0.49854207
102	0xbe399b8d	-0.18125744
103	0x3f4f7b68	0.8104768
104	0xbedce600	-0.43144226
105	0x3ee1286f	0.4397616
106	0xbd9b2048	-0.075745165
107	0xbdef8e8d	-0.11697111
108	0xbe883c9b	-0.26608738
109	0xbdf9e68b	-0.12202176
110	0x3d217a5e	0.03942334
111	0x3e6c2abe	0.2306318
112	0xbe8b542d	-0.2721266
113	0xbe67f1b4	-0.22650796
114	0xbd42214a	-0.04739503
115	0xbdd9367f	-0.106060974
116	0xbd8bf225	-0.06833295
117	0x3eeb45f9	0.45951822
118	0xbde96acc	-0.11397323
119	0x3ea366d4	0.3191439
120	0xbeb2e61d	-0.34941188
121	0x3c8e4fb2	0.017371986
122	0xbec8127b	-0.390766
123	0xbe01b809	-0.1266786
124	0xbe3ba8c3	-0.18326096
125	0xbe132842	-0.14370826
126	0x3cba2f4c	0.022727631
127	0xbe04bef8	-0.12963474
128	0x3d95dc23	0.07317378
129	0xbc85a3ee	-0.01631352
130	0x3d98af10	0.074552655
131	0xbf01dfd7	-0.5073218
132	0x3e7a8c9c	0.244677
133	0x3dfba635	0.12287561
134	0xbef4356c	-0.47697008
135	0xbdb9b61f	-0.0906794
136	0x3eb9e5bc	0.36308086
137	0xbb5d2145	-0.0033741754
138	0x3e69befa	0.22826758
139	0x3db2b39b	0.08725663
140	0xbddf2857	-0.10896366
141	0x3cbe129d	0.023202235
142	0x3d77fd1d	0.060544122
143	0xbdd7b56b	-0.105326496
144	0xbe114f04	-0.14190298
145	0x3e5b6f7a	0.21429244
146	0xbe29c28a	-0.16578117
147	0x3f44385a	0.76648486
148	0xbe68e4a4	-0.2274347
149	0xbe51ac69	-0.20475926
150	0xbe370e3d	-0.17876525
151	0x3f796197	0.97414535
152	0xbda64e8f	-0.081204526
153	0xbe529b46	-0.20567045
154	0xbe3d2225	-0.18470056
155	0xbdc85b86	-0.09783082
156	0xbe6739f2	-0.22580698
157	0x3e9d79ed	0.30757084
158	0xbe2ed53e	-0.17073533
159	0xbe91fcc1	-0.28513148
160	0xbcf4d914	-0.029888667
161	0xbec5f0a0	-0.38660145
162	0x3e6a6b2d	0.22892447
163	0x3e9016ed	0.2814249
164	0x3e13c8f7	0.14432131
165	0xbe98f661	-0.29875472
166	0x3d9aad62	0.075526014
167	0x3e438f77	0.19097696
168	0x3d89b6c1	0.06724311
169	0xbdb2143e	-0.08695267
170	0xbe92bc93	-0.28659496
171	0xbd1b2867	-0.037880328
172	0xbeef76d4	-0.46770346
173	0x3c3e4b91	0.011614696
174	0x3ca14c0d	0.019689584
175	0x3d8daa6a	0.069172695
176	0x3d6f9c30	0.05849856
177	0x3e727b5d	0.23679872
178	0x3f2b9dda	0.6703774
179	0x3dd32ecb	0.103116594
180	0xbe6b31f2	-0.22968271
181	0x3c23afc9	0.009990641
182	0x3df9b1ed	0.1219214
183	0x3d903d9d	0.07043002
184	0x3de678a5	0.1125348
185	0xbd91639b	-0.07099076
186	0xbe75a217	-0.23987614
187	0x3d112eec	0.03544514
188	0x3e0f99f1	0.14023568
189	0xbd3fffd8	-0.04687485
190	0x3db71a9a	0.08940621
191	0xbecf3f59	-0.40478018
192	0xbe83d593	-0.25748882
193	0x3ec16569	0.37772682
194	0xbdc25309	-0.09488494
195	0x3e0176f0	0.12643027
196	0x3ea861c7	0.32887098
197	0xbeba20cb	-0.36353144
198	0x3d5cf8b7	0.05394813
199	0x3ece709a	0.40320283
200	0xbea574c7	-0.32315657
201	0xbe824343	-0.25441942
202	0xbe5f277e	-0.21792409
203	0xbde7edcd	-0.11324654
204	0xbd92d178	-0.07168859
205	0x3e22a32b	0.15882556
206	0x3c89f6f6	0.016841393
207	0x3e498800	0.19680786
208	0x3e773d2c	0.24144429
209	0x3ec7254a	0.38895637
210	0xbe2876e1	-0.16451599
211	0x3e386348	0.18006623
212	0xbf1628e9	-0.58656174
213	0x3dbbfb4b	0.0917879
214	0xbe950126	-0.2910244
215	0xbdb30346	-0.08740859
216	0x3ead9285	0.33900848
217	0x3dabf487	0.08396249
218	0xbe36e237	-0.17859732
219	0x3e99e71f	0.30059144
220	0xbd995917	-0.07487696
221	0x3eb1caed	0.34725133
222	0xbe539ba6	-0.20664844
223	0x3ed43af5	0.4145123
224	0x3e90658d	0.28202477
225	0xbddbb31c	-0.10727522
226	0x3efff003	0.49987802
227	0xbe5c0548	-0.2148639
228	0x3e49c666	0.19704589
229	0x3e2e8a89	0.17045034
230	0xbdd87b54	-0.10570398
231	0xbcff0242	-0.031129006
232	0x3d5fdc01	0.05465317
233	0xbe23ebd8	-0.16007936
234	0x3b8ba100	0.004261136
235	0xbd963a08	-0.07335287
236	0x3e0a1d70	0.13487792
237	0xbd1acaa4	-0.03779091
238	0x3d9e766a	0.077374294
239	0xbd8a4654	-0.06751695
240	0x3d5ad110	0.053422034
241	0x3d9089d5	0.070575394
242	0x3bc5e9b6	0.0060398234
243	0x3e2d5ddb	0.16930334
244	0x3d074fd0	0.0330351
245	0xbd67d34d	-0.056597997
246	0x3e40d4c1	0.18831159
247	0x3c4dc16c	0.012558322
248	0xbd5b94c6	-0.05360868
249	0xbe12dc34	-0.14341813
250	0xbda61285	-0.08109001
251	0xbbe83599	-0.0070864675
252	0x3c8e3499	0.017359065
253	0xbe0a0207	-0.13477336
254	0xbd249898	-0.040184587
255	0xbd0ec9f2	-0.03486056

layers.1.bias f4 [128]
0	0xbea7a189	-0.3274043
1	0xbe5bfa02	-0.21482089
2	0x3dae8708	0.08521849
3	0xbe63ff98	-0.2226547
4	0xbdc9b3f1	-0.09848774
5	0xbe6af1f2	-0.22943857
6	0xbd723cca	-0.059140004
7	0xbf02311b	-0.5085618
8	0xbed29bc8	-0.41134477
9	0x3c317400	0.010830879
10	0x3df1cea9	0.118069954
11	0x3c987511	0.01861051
12	0xbed29d9c	-0.4113587
13	0xbf0db888	-0.553597
14	0xbeb520ae	-0.35376495
15	0xbe0b753e	-0.13618943
16	0x3e4bbd6f	0.19896482
17	0xbf0c46f3	-0.5479576
18	0xbecbcbf7	-0.3980405
19	0xbefe625f	-0.49684426
20	0x3d64a501	0.055821422
21	0x3c592c62	0.013255211
22	0xbee5e4e6	-0.44901198
23	0x3ed82b45	0.42220512
24	0x3ded960f	0.11600887
25	0xbe260276	-0.16211876
26	0x3c8de4b9	0.017320978
27	0xbeca683e	-0.39532655
28	0xbe34d7c1	-0.17660429
29	0xbf0e9478	-0.55695295
30	0xbd3295aa	-0.043599762
31	0xbebf98e9	-0.3742135
32	0xbde7e9ed	-0.11323915
33	0xbd4947fe	-0.049140923
34	0x3dff25a3	0.124583505
35	0xbde7d70a	-0.11320312
36	0x3e6e2839	0.23257531
37	0x3d592f8e	0.053023867
38	0xbec9abc2	-0.39388853
39	0xbe9718f7	-0.29511234
40	0xbe28cd34	-0.16484529
41	0xbec0e75f	-0.37676522
42	0x3ea87633	0.3290268
43	0x3e187775	0.14889319
44	0xbe53e8e2	-0.20694306
45	0xbd53d00f	-0.051712092
46	0x3eebd069	0.46057442
47	0xbee9394a	-0.4555152
48	0x3d24e29f	0.040255185
49	0xbe571e52	-0.2100766
50	0xbe930e85	-0.28722015
51	0xbf1990e3	-0.59986705
52	0xbee5238d	-0.44753686
53	0xbedb17d1	-0.42791608
54	0xbed89f44	-0.4230901
55	0xbebe1c64	-0.37131035
56	0x3d6b5c14	0.05746086
57	0xbe1be02d	-0.15222235
58	0xbed762bc	-0.42067516
59	0xbe838b18	-0.25692058
60	0x3c49f36d	0.012326104
61	0xbe90d9b2	-0.28291088
62	0x3ddf0d04	0.108911544
63	0x3de5d7c4	0.11222795
64	0x3e8a7aa6	0.27046698
65	0xbe7c4e08	-0.24639142
66	0xbefaf4cb	-0.49014887
67	0xbf42ef26	-0.7614616
68	0xbddd867d	-0.10816667
69	0xbdf9ea1b	-0.12202855
70	0xbd6a035e	-0.057132117
71	0xbc777284	-0.015102986
72	0x3c607f1d	0.013702181
73	0x3b529755	0.0032133658
74	0xbe2f954b	-0.17146794
75	0x3d057bf8	0.03258893
76	0xbec8cbb1	-0.39217904
77	0xbd4da267	-0.050203707
78	0x3ed1cf12	0.40978295
79	0x3d5d43b8	0.05401966
80	0x3ec467d4	0.38360465
81	0xbefb7a60	-0.49116802
82	0xbac0e424	-0.0014716429
83	0xbea7397f	-0.32661054
84	0xbe094c4d	-0.13408013
85	0x3dc5237a	0.09625907
86	0xbef38b7f	-0.47567365
87	0xbbc06698	-0.005871605
88	0xbca76116	-0.020432036
89	0x3edc3eba	0.43016607
90	0xbe1952c4	-0.14972979
91	0x3cbb6651	0.022875937
92	0x3b16624b	0.002294677
93	0xbeaca6a5	-0.3372089
94	0xbe2bd221	-0.16779377
95	0xbda63c3b	-0.08116957
96	0x3ca28954	0.019840874
97	0xbe827fb7	-0.25488064
98	0xbe276877	-0.16348444
99	0xbe377b52	-0.17918137
100	0xbd302099	-0.042999838
101	0xbec6f065	-0.3885528
102	0xbe59628b	-0.21228997
103	0xbf1f5bbf	-0.6224937
104	0xbefd8b3e	-0.49520296
105	0xbe234a50	-0.15946317
106	0xbef7c196	-0.48389882
107	0xbd999e80	-0.075009346
108	0xbd0f275d	-0.03494965
109	0xbe8c0b9b	-0.27352604
110	0xbe538671	-0.20656754
111	0xbe8db29a	-0.27675325
112	0xbe0f4cec	-0.13994187
113	0xbdd70728	-0.10499412
114	0xbe06d0fd	-0.1316566
115	0xbee03ab0	-0.43794775
116	0xbe343cfd	-0.1760139
117	0xbcc80c70	-0.024419993
118	0x3dd19f82	0.10235502
119	0x3da25f6e	0.07928358
120	0xbe00365f	-0.12520741
121	0xbece511a	-0.4029625
122	0xbc24c339	-0.01005631
123	0xbe9e0833	-0.3086563
124	0xbe8b945e	-0.27261633
125	0xbdef4883	-0.116837524
126	0xbec1552f	-0.37760302
127	0xbed092fa	-0.40737134

layers.3.weight f4 [128]
0	0x3ec6e516	0.38846654
1	0x3e6c2883	0.23062329
2	0x3f012670	0.50449276
3	0x3f287c94	0.6581509
4	0x3f417d03	0.7558138
5	0x3f2d7600	0.6775818
6	0x3f1b3411	0.6062632
7	0x3e81db54	0.25362647
8	0x3f29b35e	0.6628932
9	0x3ef48943	0.47760972
10	0x3f6a93de	0.9163188
11	0x3f441f48	0.7661023
12	0x3ede1cd1	0.4338136
13	0x3ec18395	0.37795702
14	0x3f2d9eda	0.67820513
15	0x3ed4e6a0	0.41582203
16	0x3f3a6a11	0.72818094
17	0x3f1db93c	0.6161077
18	0x3f6c04c9	0.921948
19	0x3f2d75cf	0.67757887
20	0x3f4010ca	0.7502562
21	0x3f728165	0.9472869
22	0x3eefdc55	0.46847787
23	0x3f226150	0.6342974
24	0x3f2b9203	0.6701967
25	0x3f92845d	1.1446644
26	0x3ee489a4	0.4463626
27	0x3f3bb2d4	0.73319745
28	0x3f1ad55e	0.6048182
29	0x3f1239f3	0.57119673
30	0x3f43939b	0.76397103
31	0x3eacd44f	0.3375573
32	0x3f4c3db1	0.79781634
33	0x3ee20cd3	0.4415041
34	0x3f75b1e4	0.95974565
35	0x3f0fab4e	0.56120765
36	0x3f28cd36	0.6593813
37	0x3f06cfbe	0.5266074
38	0x3f1c81a7	0.61135334
39	0x3eff0a2b	0.49812445
40	0x3f116377	0.56792396
41	0x3f2fe847	0.687138
42	0x3f2b0848	0.6680951
43	0x3f2b6368	0.66948557
44	0x3ef35558	0.4752605
45	0x3f0dcbd2	0.5538913
46	0x3e9cc18d	0.30616418
47	0x3f034ffc	0.5129392
48	0x3f291baf	0.66057867
49	0x3ee8750e	0.45401806
50	0x3f700939	0.9376407
51	0x3f5843d6	0.8447851
52	0x3eaa91c4	0.33314335
53	0x3f0dee17	0.5544142
54	0x3f2bdbe6	0.67132413
55	0x3f038374	0.51372457
56	0x3f07be09	0.53024346
57	0xbf27764c	-0.6541488
58	0x3f256c15	0.64618045
59	0x3f088fc6	0.5334438
60	0x3f36ce5b	0.71408623
61	0x3ea39e05	0.31956497
62	0x3f00bda3	0.5028936
63	0x3eea0663	0.45707998
64	0x3f126eb9	0.572002
65	0x3ee109c0	0.4395275
66	0x3ee5e61b	0.4490212
67	0x3e2c9c77	0.16856562
68	0x3f3f6346	0.74760854
69	0x3f5c9471	0.86164004
70	0x3eed0a1f	0.46296784
71	0x3eb3dcf5	0.35129514
72	0x3f0fe7d5	0.5621312
73	0x3f1bda88	0.6088033
74	0x3ed8ee4c	0.42369306
75	0x3f40382a	0.750857
76	0x3f39be4b	0.7255599
77	0x3f2dae09	0.6784368
78	0x3f304b05	0.6886447
79	0x3f0dede2	0.55441105
80	0x3f34f022	0.70678914
81	0x3f0a0ccb	0.5392577
82	0x3f291fc5	0.660641
83	0x3f405f7e	0.7514571
84	0x3f178339	0.59184605
85	0x3f068041	0.5253945
86	0x3ecd218c	0.40064657
87	0x3f34f7db	0.706907
88	0x3f7e0a3e	0.9923438
89	0x3eee65dc	0.46562088
90	0x3f290ba0	0.66033363
91	0x3f1ae94e	0.60512245
92	0x3f28a7a5	0.65880805
93	0x3f16649a	0.58747256
94	0x3efc509f	0.4928026
95	0x3f0a4741	0.54014975
96	0x3ed9e790	0.4255948
97	0x3ef3b356	0.4759776
98	0x3f359303	0.7092745
99	0x3f057c7f	0.5214309
100	0x3f62f2b5	0.8865159
101	0x3ef58ca3	0.4795886
102	0x3f2aface	0.6678895
103	0x3ec2eb9c	0.3807038
104	0x3f576908	0.8414464
105	0x3eddcd28	0.43320584
106	0x3f1d9fdc	0.6157205
107	0x3f3cb22e	0.7370938
108	0x3f245772	0.6419593
109	0x3f295bf4	0.66155934
110	0x3f21a604	0.63143945
111	0x3f119c73	0.5687935
112	0x3f2ec12d	0.6826351
113	0x3f6380b6	0.8886827
114	0x3f336989	0.7008291
115	0x3e8b0972	0.27155644
116	0x3f241709	0.6409765
117	0x3efc6d03	0.4930192
118	0x3f818882	1.0119784
119	0x3edf2e8f	0.4359021
120	0x3f2e01ef	0.679717
121	0x3f18d553	0.59700507
122	0x3f83a69a	1.0285218
123	0x3f330de1	0.6994305
124	0x3f053903	0.5204012
125	0x3f05e5f1	0.5230399
126	0x3f3d7f81	0.7402268
127	0x3eefb137	0.46814892

layers.3.bias f4 [128]
0	0xbee5c1bf	-0.4487438
1	0xbf226793	-0.6343929
2	0xbda94bf1	-0.08266438
3	0xbb867097	-0.004102777
4	0x3e64a669	0.22329105
5	0x3e98728e	0.29774898
6	0x3f084e73	0.53244704
7	0xbece1382	-0.40249258
8	0xbc4bda70	-0.012442216
9	0xbe5f1d50	-0.21788526
10	0x3e574894	0.2102378
11	0x3ea5ba6e	0.32368797
12	0x3de22779	0.11042685
13	0xbdfa56a8	-0.122235596
14	0x3ea0fd7f	0.31443402
15	0x3dbe7bdc	0.09300968
16	0x3de63b31	0.112417586
17	0x3e8db410	0.2767644
18	0x3ecd44b0	0.40091467
19	0x3ea7d2ba	0.3277796
20	0x3e52ff78	0.20605266
21	0x3e4dab78	0.20084941
22	0x3e4cf59c	0.20015568
23	0xbdbf5678	-0.093426645
24	0x3e937955	0.28803506
25	0x3e7d4dfe	0.24736783
26	0xbe7ab0bc	-0.24481481
27	0xbf018d8c	-0.5060661
28	0x3e8d67db	0.27618298
29	0xbd6e3927	-0.058159973
30	0x3da65b7a	0.081229165
31	0x3d911fa0	0.0708611
32	0x3eb547f6	0.35406464
33	0xbcf15878	-0.02946113
34	0x3ee8f13b	0.45496544
35	0xbbe76192	-0.007061192
36	0x3ec600fb	0.38672623
37	0x3dde1c53	0.10845246
38	0xbead75c5	-0.33878914
39	0xbdc98dba	-0.09841485
40	0x3e736aca	0.23771206
41	0xbe2a4866	-0.1662918
42	0x3eb3454a	0.350138
43	0xbee7984a	-0.45233375
44	0xbdb4dfb8	-0.088317335
45	0x3eaab55c	0.3334149
46	0x3ea86b3e	0.3289432
47	0x3dbb1350	0.09134543
48	0x3f2d352a	0.67659247
49	0xbdee397a	-0.116320565
50	0xbe6ce5ee	-0.23134586
51	0x3dc06a3d	0.09395263
52	0x3ebf9e3c	0.3742541
53	0xbe2a090f	-0.16605018
54	0x3ead42db	0.3384007
55	0x3ea34818	0.3189094
56	0xbd207a07	-0.039178874
57	0xbebf4f0f	-0.37365004
58	0x3d80bde8	0.06286222
59	0xbe341a3a	-0.1758813
60	0x3f09d67c	0.538429
61	0xbf6f6b19	-0.93522793
62	0xbe8f1b88	-0.27950692
63	0x3ecd0bf1	0.40048173
64	0x3ee70e50	0.45128107
65	0x3ebcddf1	0.36888078
66	0x3d928dfa	0.07155986
67	0xbf2a23b7	-0.66460747
68	0x3d9ff532	0.07810439
69	0x3f305997	0.68886703
70	0x3edd2059	0.43188742
71	0x3e78f65c	0.24312729
72	0x3ca88436	0.020570856
73	0x3f102048	0.5629926
74	0x3efda8fa	0.4954298
75	0xbd15ba27	-0.03655448
76	0x3ea6e513	0.32596645
77	0x3e808957	0.25104782
78	0xbd427663	-0.047476184
79	0x3da945ef	0.08265292
80	0xbd8e7cf7	-0.06957429
81	0x3e013d69	0.12621082
82	0xbec030ca	-0.37537223
83	0x3edcf339	0.43154314
84	0x3e07bce3	0.13255648
85	0x3e08877f	0.13332938
86	0xbdc1ee1e	-0.094692454
87	0x3ed392fb	0.41323075
88	0x3ea8dfdb	0.32983288
89	0x3e75d366	0.24006423
90	0xbf051d78	-0.5199809
91	0x3d827d17	0.06371515
92	0x3e0bcc5f	0.1365218
93	0x3f489be5	0.78362876
94	0x3dd83e34	0.10558739
95	0xbed8d937	-0.42353222
96	0xbed7f683	-0.4218026
97	0x3ecc42d4	0.39894736
98	0x3e7a2949	0.24429812
99	0xbf04205f	-0.51611894
100	0x3bdec9df	0.0067989673
101	0x3ea39df7	0.31956455
102	0xbd74d686	-0.059774898
103	0xbd80492b	-0.06263956
104	0x3e8f6e00	0.2801361
105	0xbcbfa04f	-0.02339187
106	0x3f1e8afd	0.6193083
107	0x3c1a7560	0.009427398
108	0xbe1080a9	-0.1411158
109	0x3ee39613	0.44450435
110	0x3e7fd3b7	0.24983107
111	0x3e81d648	0.25358796
112	0x3f10ca98	0.56559134
113	0x3f0388c7	0.5138058
114	0x3e747bed	0.23875399
115	0x3e063a77	0.1310824
116	0x3e25efe9	0.162048
117	0xbe6ad1cb	-0.22931592
118	0xbcea11bf	-0.028572915
119	0xbedf1fa0	-0.43578815
120	0x3e9f2cfe	0.31089014
121	0x3de8433d	0.1134095
122	0x3e6f33a3	0.23359542
123	0x3dd8a16d	0.105776645
124	0x3da63b0a	0.081167296
125	0xbd2d4cd4	-0.042309597
126	0x3ed93db3	0.42429885
127	0xbd5b71a3	-0.05357517

layers.3.running_mean f4 [128]
0	0x3d43d21f	0.04780781
1	0x3e57cd2f	0.21074365
2	0x3efa9c09	0.4894717
3	0x3dcd4006	0.10021977
4	0x3e2ea144	0.17053705
5	0x3de6e890	0.112748265
6	0x3ea43862	0.32074267
7	0x00000004	6e-45
8	0x00000004	6e-45
9	0x3f07add8	0.5299964
10	0x3e94bcdd	0.2905034
11	0x3db22fcd	0.087005235
12	0x3ce06f3e	0.027396794
13	0x3d948f53	0.072538994
14	0x3dab6e44	0.08370641
15	0x3e3f4326	0.18677959
16	0x3f0dbb4c	0.5536392
17	0x3d9f0d68	0.07766229
18	0x3e1b606d	0.15173502
19	0x00000004	6e-45
20	0x3da6c448	0.081429064
21	0x3e1c2778	0.15249431
22	0x3bfb1dc9	0.007663463
23	0x3f77b880	0.967659
24	0x3f1e4c7b	0.6183545
25	0x3f208359	0.6270042
26	0x3efb55fd	0.4908904
27	0x3d8d5127	0.06900244
28	0x3e733df9	0.2375411
29	0x3d1da936	0.03849145
30	0x3f323a62	0.69620335
31	0x3c516c9b	0.012782241
32	0x3e91c45c	0.28470123
33	0x3e060603	0.13088231
34	0x3f90679b	1.1281618
35	0x3e0e0a67	0.13871156
36	0x3f410e2f	0.7541227
37	0x3e92d273	0.28676185
38	0x3dadddbf	0.0848956
39	0x3dccf31b	0.10007306
40	0x3e70526b	0.2346894
41	0x00000004	6e-45
42	0x3f4881b1	0.78322893
43	0x3ed191c0	0.4093151
44	0x3d642d24	0.055707112
45	0x3f15f06c	0.5856998
46	0x3f783a7e	0.9696425
47	0x3cc294e8	0.023752645
48	0x3f453a70	0.77042294
49	0x3f0e2c79	0.5553661
50	0x3dd09460	0.1018455
51	0x00000004	6e-45
52	0x30485052	7.287372e-10
53	0x3e26f060	0.16302633
54	0x3e670bc0	0.22563076
55	0x3e36979b	0.1783127
56	0x3f22699e	0.6344241
57	0x3e970296	0.2949416
58	0x00000004	6e-45
59	0x3d94bf58	0.072630584
60	0x3ecd6927	0.40119287
61	0x3ebf5226	0.37367362
62	0x3ef30545	0.47464958
63	0x3f00d10b	0.50318974
64	0x3f235c95	0.63813144
65	0x3d1f071e	0.038825147
66	0x3d637e01	0.05554009
67	0x00000004	6e-45
68	0x3e3ab518	0.18233144
69	0x3d8f9db9	0.07012505
70	0x3f029b57	0.5101828
71	0x3eb7b295	0.35878435
72	0x3e803cea	0.25046474
73	0x3ea1bdc3	0.3159009
74	0x3d80da12	0.062915936
75	0x3e183de2	0.14867356
76	0x3e83f850	0.25775385
77	0x3e7a187f	0.24423407
78	0x3f919483	1.1373447
79	0x3eca5af7	0.39522526
80	0x3f22066d	0.63291055
81	0x3d884b1c	0.06654951
82	0x3e419b53	0.18906908
83	0x3da3bd03	0.079950355
84	0x3d81c673	0.06336679
85	0x3e7a91c5	0.24469669
86	0x3d40c08d	0.04705863
87	0x3ef26542	0.4734288
88	0x3df255ca	0.11832769
89	0x3f6a3f52	0.9150287
90	0x3d91b35f	0.071142904
91	0x3edea027	0.43481562
92	0x3f05d7a5	0.5228217
93	0x3e0b6632	0.13613203
94	0x3e6f2b20	0.23356295
95	0x3ed2c697	0.41167137
96	0x3ebdf1e6	0.37098616
97	0x3d7794ed	0.06044476
98	0x3e18d404	0.14924628
99	0x3eb622bf	0.35573384
100	0x3e036222	0.12830403
101	0x3e2ff4f1	0.17183281
102	0x3e85999e	0.26093763
103	0x00000004	6e-45
104	0x3c0e7b20	0.0086963475
105	0x3d3c980f	0.046043452
106	0x3c9cc6fc	0.019137852
107	0x3ead5265	0.33851925
108	0x3dadaabf	0.08479833
109	0x3e8c8bd2	0.27450424
110	0x3e9de449	0.3083823
111	0x3e2ca5f1	0.16860177
112	0x3e24a21b	0.16077463
113	0x3dfa52b8	0.122228086
114	0x3f18dbdc	0.5971048
115	0x3c20a68d	0.009805334
116	0x3dba9413	0.09110274
117	0x3ed5bf5d	0.4174756
118	0x3e107250	0.14106107
119	0x3e427c4d	0.1899273
120	0x3e4b35ba	0.19844714
121	0x3e1edd1e	0.15514037
122	0x3ef30c0f	0.47470137
123	0x3d520554	0.051274613
124	0x3d767c6c	0.06017725
125	0x3d43c1c7	0.047792222
126	0x3d2eea33	0.04270382
127	0x3d38bf35	0.045104224

layers.3.running_var f4 [128]
0	0x3ca80bf2	0.020513508
1	0x3e042cc6	0.12907705
2	0x3e83bd62	0.25730425
3	0x3d888ba4	0.06667259
4	0x3d8c0c6e	0.06838308
5	0x3d419836	0.0472643
6	0x3e4dc5b5	0.2009495
7	0x00000004	6e-45
8	0x00000004	6e-45
9	0x3ed74f2f	0.420526
10	0x3d1eff0b	0.038817447
11	0x3ca8a449	0.02058615
12	0x3c70f699	0.014707231
13	0x3d289553	0.04115803
14	0x3cd0a3ec	0.025468789
15	0x3dcd614d	0.10028324
16	0x3e489347	0.19587432
17	0x3cc2b3be	0.023767348
18	0x3dd2242e	0.10260807
19	0x00000004	6e-45
20	0x3c8d2acf	0.017232327
21	0x3d8cb812	0.06871046
22	0x3ab5c27b	0.0013867164
23	0x3e294d8d	0.1653349
24	0x3f1749eb	0.59097165
25	0x3f1c1a0b	0.6097724
26	0x3e81c9b8	0.25349212
27	0x3d15c3af	0.03656357
28	0x3ded5588	0.115885794
29	0x3c3fc29c	0.011704113
30	0x3f01e9d3	0.5074741
31	0x3b99fe9b	0.004699541
32	0x3e54c53e	0.20778367
33	0x3ccffd13	0.02538923
34	0x3ee62c0d	0.44955483
35	0x3d921f8e	0.07134925
36	0x3f11f9b5	0.5702165
37	0x3de2ba4b	0.11070689
38	0x3d3b68e8	0.045754343
39	0x3d4f8771	0.050666276
40	0x3de584e4	0.112069875
41	0x00000004	6e-45
42	0x3eaca5db	0.33720288
43	0x3ecfb2a9	0.40565994
44	0x3c9d32a2	0.019189183
45	0x3ecfa57c	0.40555942
46	0x3d451259	0.0481132
47	0x3ba7031f	0.0050968076
48	0x3f3dcb4f	0.7413835
49	0x3eaf187d	0.3419837
50	0x3d46cf65	0.04853763
51	0x00000004	6e-45
52	0x2dc496ed	2.2349645e-11
53	0x3d9b32f7	0.0757808
54	0x3e44abd1	0.19206168
55	0x3dace375	0.084418215
56	0x3e9b6793	0.30352458
57	0x3e4f03ed	0.20216341
58	0x00000004	6e-45
59	0x3ca80df4	0.020514466
60	0x3e3a31fd	0.18183132
61	0x3e8707d2	0.26373154
62	0x3e9264d3	0.28592548
63	0x3e89f655	0.2694575
64	0x3d8a6ab9	0.06758637
65	0x3c55a22d	0.013039154
66	0x3cf33c04	0.029691704
67	0x00000004	6e-45
68	0x3dd23da9	0.10265667
69	0x3d07cc3a	0.03315375
70	0x3ead71b8	0.33875823
71	0x3e3c168c	0.18367976
72	0x3dc3289e	0.095292315
73	0x3e53d07c	0.20684999
74	0x3c9c0aff	0.019048212
75	0x3d6ad46a	0.05733148
76	0x3e2e99b0	0.17050815
77	0x3d98e929	0.07466347
78	0x3d8a5ab5	0.06755582
79	0x3e40fb74	0.18845922
80	0x3d1e0729	0.038581047
81	0x3ccc8b91	0.024968894
82	0x3dd36c82	0.103234306
83	0x3d4894e8	0.048970133
84	0x3cb32fff	0.021873472
85	0x3e267212	0.16254452
86	0x3cc7ce71	0.024390431
87	0x3e2a23b9	0.1661519
88	0x3d302fdf	0.043014403
89	0x3e01cfc7	0.12676917
90	0x3cdd1e0c	0.026991867
91	0x3e00a6ea	0.12563673
92	0x3eb9334c	0.3617195
93	0x3e069ca0	0.13145685
94	0x3e11a476	0.14222893
95	0x3e7f0a81	0.2490635
96	0x3e1f0543	0.15529351
97	0x3c9ed30e	0.019387748
98	0x3dbb2d6c	0.09139523
99	0x3e9b950c	0.3038715
100	0x3d1969e2	0.037454493
101	0x3db21dd1	0.08697093
102	0x3e006030	0.12536693
103	0x00000004	6e-45
104	0x3c362491	0.011117117
105	0x3cabdc4e	0.020979073
106	0x3be9e967	0.0071384194
107	0x3e1b4843	0.15164284
108	0x3c9a60ce	0.018844988
109	0x3e242f45	0.16033657
110	0x3e7e96dd	0.24862237
111	0x3e0bc2e4	0.13648564
112	0x3d8e0db2	0.06936206
113	0x3d8523b5	0.06500951
114	0x3f14fd1c	0.58198714
115	0x3b201ca1	0.0024431127
116	0x3d1370be	0.03599619
117	0x3ebd87f6	0.37017792
118	0x3d2d34f7	0.04228684
119	0x3d370977	0.04468676
120	0x3d9786e7	0.073987775
121	0x3e037a27	0.12839566
122	0x3e2c9374	0.16853124
123	0x3cd17f9b	0.025573542
124	0x3ca36019	0.019943284
125	0x3c58998e	0.013220204
126	0x3cc29795	0.02375392
127	0x3cea6633	0.028613186

layers.4.weight f4 [64, 128]
0	0xbdbcd639	-0.09220547
1	0xbe92401e	-0.28564543
2	0x3e345718	0.17611349
3	0xbe0ad5ef	-0.13558172
4	0x3d3802b9	0.04492447
5	0x3ef063b5	0.4695107
6	0x3e441cc1	0.19151594
7	0xbd021652	-0.031759568
8	0x3e11a1e3	0.14221911
9	0x3d71088a	0.058846034
10	0xbe80dd37	-0.25168774
11	0x3db1da7a	0.08684249
12	0x3eabe964	0.335765
13	0xbe0887c6	-0.13333043
14	0x3e48bd51	0.19603468
15	0x3bf24197	0.007393073
16	0x3d552bfa	0.052043892
17	0x3e452553	0.1925252
18	0xbeec223d	-0.46119872
19	0xbc2e6a34	-0.010645438
20	0xbd3ba68e	-0.045813136
21	0x3e78bbd5	0.24290402
22	0x3ef33981	0.4750481
23	0xbe317abd	-0.17331977
24	0xbdb14888	-0.08656412
25	0xbe8e1714	-0.27751982
26	0x3caac9f5	0.020848254
27	0x3e87f669	0.26555184
28	0x3de453f0	0.11148822
29	0x3f26ac2b	0.6510646
30	0xbd73d870	-0.059532583
31	0xbdf15093	-0.117829464
32	0x3f0631ca	0.5241972
33	0xbc505e63	-0.012717816
34	0xbea948ad	-0.3306326
35	0xbe8f47e6	-0.27984542
36	0xbe2e9c6b	-0.17051856
37	0xbd7ce517	-0.061741915
38	0xbee7547f	-0.45181653
39	0x3ec45bed	0.38351384
40	0x3ee43e4b	0.44578776
41	0x3da5a657	0.080883674
42	0x3df31d3f	0.118708126
43	0xbf1bf8be	-0.60926425
44	0x3f182a03	0.59439105
45	0x3f268074	0.65039754
46	0xbe9d8692	-0.30766732
47	0x3e93773d	0.2880191
48	0x3e9c9c5d	0.30588046
49	0x3e72fd4f	0.23729442
50	0xbe93276f	-0.28741023
51	0xbeb2de55	-0.3493525
52	0x3ea3b7d9	0.31976202
53	0xbe946a23	-0.28987226
54	0x3e7843da	0.24244633
55	0x3d3346a8	0.043768555
56	0xbd109063	-0.035293948
57	0x3db461a5	0.08807687
58	0x3d825525	0.06363896
59	0x3ea3f7f5	0.32025114
60	0xbd980a0d	-0.07423792
61	0xbea9138a	-0.3302272
62	0x3eaeb9a5	0.3412601
63	0x3d355f8b	0.04428057
64	0xbdd1f741	-0.10252238
65	0xbcb4b3d9	-0.022058414
66	0x3f1783f4	0.5918572
67	0x3db92201	0.09039689
68	0x3da03b50	0.07823813
69	0xbe679537	-0.22615515
70	0xbe46e88b	-0.19424646
71	0xbe81a578	-0.25321555
72	0xbd6a69fe	-0.05722999
73	0x3d826f3d	0.06368873
74	0xbc4eecb6	-0.0126296785
75	0xbec55029	-0.3853772
76	0x3e7c0125	0.24609812
77	0xbd5e1775	-0.05422159
78	0xbe0c813f	-0.13721178
79	0xbf0a45f3	-0.54012984
80	0xbcddd533	-0.0270792
81	0x3ed0f507	0.4081194
82	0x3da0010e	0.07812701
83	0xbec42cf9	-0.3831556
84	0x3dc2d5b2	0.095134154
85	0x3e4f3a9e	0.20237204
86	0xbefba26a	-0.4914735
87	0xbf0e8c77	-0.5568308
88	0x3e159b4e	0.14610025
89	0xbe2fd0ca	-0.1716949
90	0xbe991376	-0.2989766
91	0xbea10503	-0.31449136
92	0xbdaa4764	-0.08314398
93	0x3ded142b	0.11576112
94	0x3d672e6c	0.056440756
95	0x3eb9339d	0.3617219
96	0xbed97b91	-0.42477086
97	0xbe625466	-0.22102508
98	0xbeb9fa8a	-0.3632396
99	0xbe30a4d2	-0.17250374
100	0x3d81e542	0.063425556
101	0xbeae10fa	-0.33997327
102	0x3d235332	0.039874263
103	0x3d9dc3ad	0.07703338
104	0x3e7da0c4	0.24768358
105	0x3dbe20e2	0.09283616
106	0x3eeb20fc	0.45923603
107	0xbf21b086	-0.6315998
108	0x3e812f3d	0.25231352
109	0x3dc64283	0.09680655
110	0x3f05ea6f	0.5231084
111	0x3de8860d	0.11353693
112	0x3e8008b8	0.25006652
113	0xbd95c759	-0.07313413
114	0xbeba07bf	-0.36334035
115	0xbdfc2af9	-0.12312884
116	0x3ed1ab15	0.40950838
117	0x3e82faa8	0.2558186
118	0x3d602767	0.054725077
119	0x3e5c816d	0.21533747
120	0xbed4085c	-0.41412628
121	0x3e88c1fb	0.26710495
122	0xbdbdcb6e	-0.09267317
123	0xbd8f02d0	-0.06982958
124	0x3eafdc8a	0.34347945
125	0x3e55ca5a	0.20877972
126	0x3d7ed543	0.0622151
127	0xbe5d237b	-0.21595566
128	0xbe2fe96f	-0.17178892
129	0x3e5e6c86	0.21721086
130	0xbd9d1374	-0.07669726
131	0xbdec1e66	-0.115292355
132	0xbecdf469	-0.40225533
133	0xbe942985	-0.28937927
134	0xbf1d628d	-0.614785
135	0x3e8570fc	0.26062763
136	0x3e474538	0.19459999
137	0x3e03464b	0.12819783
138	0xbd9b95f9	-0.075969644
139	0xbf045279	-0.51688343
140	0x3e2db896	0.16964945
141	0x3e76b201	0.2409134
142	0x3e1557f7	0.14584337
143	0xbcb72749	-0.0223576
144	0x3cd159a2	0.025555436
145	0xbe4982eb	-0.19678847
146	0xbe293d28	-0.16527236
147	0xbe2eef3e	-0.17083451
148	0x3da142f4	0.078740984
149	0xbf091fd0	-0.5356417
150	0xbdedc8d4	-0.116105705
151	0xbcfe1959	-0.031017946
152	0x3dc99cbd	0.098443486
153	0xbdd4d68b	-0.10392483
154	0x3cd308e6	0.025761079
155	0x3e665c91	0.22496249
156	0xbd6d1f02	-0.0578909
157	0x3ebdc1cb	0.37061915
158	0xbd925b06	-0.071462676
159	0x3be0db93	0.006862113
160	0xbddd3b5d	-0.10802338
161	0xbe24cd12	-0.16093853
162	0xbe3801eb	-0.17969482
163	0xbc093847	-0.008375234
164	0x3b6e2ea8	0.0036343727
165	0x3da3ac39	0.07991833
166	0x3d66c995	0.056344587
167	0x3e9463e0	0.2898245
168	0x3e136169	0.14392628
169	0x3e8ebe70	0.27879667
170	0xbdedaa55	-0.11604754
171	0x3e26e974	0.16299993
172	0x3ea2fa52	0.31831604
173	0x3e03b8c0	0.12863445
174	0x3db0e0e3	0.08636644
175	0xbc7b85ff	-0.015351771
176	0xbed154ed	-0.40885106
177	0xbe15e5f2	-0.14638498
178	0x3e9214a4	0.28531373
179	0xbe2902ee	-0.16505024
180	0xbe901d19	-0.281472
181	0x3d3aacbf	0.0455749
182	0xbe4422c9	-0.19153894
183	0xbdaee0ca	-0.08538969
184	0x3e31d66f	0.17366956
185	0x3e0dff3e	0.13866898
186	0xbdc4965e	-0.09598993
187	0x3e2c835e	0.16846988
188	0xbe14a13f	-0.14514636
189	0x3dd41109	0.10354812
190	0xbdc12646	-0.09431128
191	0x3c0b3230	0.008495852
192	0xbdf6cbc5	-0.12050585
193	0xbf0591de	-0.521757
194	0x3cf84814	0.030307807
195	0x3e3f62d2	0.1869004
196	0x3d32a3ff	0.04361343
197	0xbf0b8262	-0.54495823
198	0xbe60014b	-0.21875493
199	0xbde69509	-0.11258895
200	0xbd5269b9	-0.051370356
201	0xbec40f3d	-0.38292876
202	0xbe56b845	-0.20968731
203	0xbe5f7284	-0.21821028
204	0x3de8090b	0.1132985
205	0xbe00ee6f	-0.12590955
206	0xbdc3fd7e	-0.09569834
207	0xbd79df4d	-0.06100397
208	0xbdc29f33	-0.09503021
209	0x3ea7d8d7	0.32782623
210	0x3ee8ae7a	0.45445615
211	0xbdb72569	-0.08942682
212	0x3bae4fb2	0.005319559
213	0xbe686769	-0.22695698
214	0x3e341e4f	0.17589687
215	0xbcdcab92	-0.02693728
216	0xbe9321ee	-0.28736824
217	0x3ce41221	0.027840676
218	0x3e23eda0	0.16008615
219	0xbbe42fb0	-0.0069636926
220	0xbd491d8f	-0.049100455
221	0xbeafffb0	-0.34374762
222	0xbe537d53	-0.20653276
223	0x3ecfffdb	0.4062489
224	0x3e89cf5c	0.26916015
225	0xbdb60cdc	-0.088891715
226	0xbc6900ff	-0.014221429
227	0x3ec326ea	0.38115627
228	0x3e89a1e5	0.26881328
229	0xbeac4c7e	-0.3365211
230	0x3dc89683	0.09794333
231	0x3ead62e8	0.33864522
232	0xbed3a2e6	-0.4133522
233	0xbdfd8169	-0.12378199
234	0xbea415fe	-0.3204803
235	0xbe6d0312	-0.23145702
236	0x3dd51504	0.10404399
237	0xbe8d4350	-0.27590418
238	0xbe09d63c	-0.1346063
239	0x3d347991	0.044061247
240	0xbda70902	-0.08156015
241	0x3cd9fb89	0.0266092
242	0xbd851014	-0.06497207
243	0x3e8eb837	0.2787492
244	0x3c0c034d	0.008545709
245	0x3e082294	0.1329444
246	0x3e1c290a	0.1525003
247	0x3c8eda00	0.017437935
248	0xbf2452fb	-0.6418912
249	0x3e0ef459	0.13960399
250	0x3d446e47	0.04795673
251	0x3e87cc41	0.2652302
252	0x3d216d5c	0.039410934
253	0x3e086f7a	0.13323775
254	0xbec4824f	-0.38380668
255	0x3dc3bdc6	0.09557681

layers.4.bias f4 [64]
0	0x3e1f9a7b	0.15586273
1	0xbe839967	-0.25702974
2	0x3dce8391	0.10083688
3	0xbeb2db8c	-0.34933126
4	0xbd0716cd	-0.03298073
5	0xbee4c750	-0.44683313
6	0x3da58fcc	0.08084068
7	0xbcae48bd	-0.021274919
8	0xbef0d566	-0.4703781
9	0xbed9fdfc	-0.42576587
10	0x3d05c51c	0.03265868
11	0xbc86029f	-0.016358672
12	0x3e037d63	0.128408
13	0xbe183715	-0.14864762
14	0x3e81cedc	0.25353134
15	0x3e81abf5	0.25326505
16	0xbe8d050e	-0.2754292
17	0xbeb8e265	-0.36110225
18	0xbe764bfe	-0.24052426
19	0xbe42140c	-0.1895296
20	0xbe2c2ff7	-0.16815172
21	0xbef0cca0	-0.47031116
22	0xbb36ef6c	-0.0027913703
23	0x3eea03b3	0.45705947
24	0xbf0c6f38	-0.54857206
25	0x3f2479cc	0.6424835
26	0xbf08c588	-0.5342641
27	0x3edf0732	0.43560177
28	0xbdd97511	-0.10618032
29	0x3d263c52	0.04058487
30	0xbe19cb41	-0.15018941
31	0x3db568f7	0.08857911
32	0xbe07b0f9	-0.13251103
33	0xbe4eeb05	-0.2020684
34	0xbe22c184	-0.15894133
35	0x3be45d38	0.0069691204
36	0x3f087bb2	0.53313744
37	0xbe98d45a	-0.2984951
38	0x3e00e03b	0.12585537
39	0xbe9830ac	-0.29724634
40	0xbe479119	-0.19488944
41	0xbe76f74a	-0.24117771
42	0xbe379de0	-0.17931318
43	0xbe8ee0aa	-0.2790578
44	0x3cc0e14c	0.02354493
45	0x3e6f777e	0.23385426
46	0xbe92490c	-0.28571355
47	0xbe605ec2	-0.21911147
48	0xbefbc36e	-0.4917254
49	0xbe81f7fc	-0.2538451
50	0xbebb306c	-0.3656038
51	0xbecb4e60	-0.39708233
52	0xbecd8f75	-0.40148512
53	0xbeab11a5	-0.334119
54	0x3fe846d7	1.8146619
55	0xbdf34c4a	-0.11879785
56	0xbef92da1	-0.48667625
57	0xbe081283	-0.13288312
58	0xbe2e5480	-0.17024422
59	0xbe590215	-0.211922
60	0x3ea73f7c	0.32665622
61	0xbe9e10ed	-0.30872288
62	0x3d01c5d8	0.03168282
63	0xbcfa2771	-0.030536385

layers.6.weight f4 [64]
0	0x3f8a67e0	1.081295
1	0x3fc372f9	1.5269462
2	0x3f41729d	0.7556551
3	0x3f559b60	0.8344021
4	0x3fb5748c	1.4176192
5	0x3fd379b0	1.6521511
6	0x3fc1e326	1.5147445
7	0x3fd3804c	1.6523528
8	0x3ecfbd5d	0.4057416
9	0x3f841815	1.0319849
10	0x3fbdd6c5	1.4831167
11	0x3f730084	0.9492266
12	0x3fc00953	1.5002846
13	0x3faf301a	1.3686554
14	0x3fc812c0	1.5630722
15	0x3f907f2d	1.1288811
16	0x3fe84527	1.8146104
17	0x3f8ca4bd	1.0987774
18	0x3fc5f241	1.5464555
19	0x3f821095	1.016131
20	0x3fbb81b0	1.4648952
21	0x3f9d4911	1.2287923
22	0x3fd91994	1.6960931
23	0x3fcf20fd	1.6181942
24	0x3fa2a6eb	1.2707189
25	0x3ff98016	1.9492214
26	0x3f3b5d5b	0.73189324
27	0x3faf4e43	1.3695759
28	0x3fa6a20e	1.3018205
29	0x3fe3e305	1.7803656
30	0x3f9b3ec5	1.2128531
31	0x3fc9b600	1.5758667
32	0x3fa5b385	1.294541
33	0x3f9c0ffb	1.2192377
34	0x3fb593ff	1.418579
35	0x3f94a82c	1.1613822
36	0x3f12ee49	0.57394844
37	0x3f3e46ab	0.7432658
38	0x3fdad1db	1.7095293
39	0x3fd2b06f	1.6460093
40	0x3f3a971c	0.72886825
41	0x3f710b2e	0.94157684
42	0x3f8b106c	1.0864387
43	0x3f521b25	0.8207267
44	0x3f8cd7aa	1.1003315
45	0x3f67de87	0.90573925
46	0x3f57dc20	0.8432026
47	0x3fe3d4a5	1.7799269
48	0x3efc0d67	0.49228975
49	0x3f760fea	0.9611803
50	0x3fa13134	1.2593141
51	0x3f6b5ed6	0.91941583
52	0x3ee661d6	0.44996518
53	0x3f11bb1a	0.5692612
54	0x3fac6238	1.3467474
55	0x3fbeca3b	1.4905466
56	0x3f75c20c	0.9599922
57	0x3fa8f417	1.319949
58	0x3f5cc5db	0.86239403
59	0x3f4bdb3f	0.7963142
60	0x3f8462d5	1.0342661
61	0x3fc84537	1.5646123
62	0x3f91738f	1.1363391
63	0x400328f7	2.0493753

layers.6.bias f4 [64]
0	0xbd8e725b	-0.06955405
1	0x3e83154d	0.2560219
2	0xbc5161e3	-0.012779686
3	0xbd3fd1c7	-0.04683092
4	0xbd34f096	-0.044174753
5	0xbecdf01b	-0.40222248
6	0xbe922652	-0.2854486
7	0xbe6524aa	-0.22377267
8	0xbe85cf22	-0.26134592
9	0xbed32b37	-0.41243908
10	0x3e814fd8	0.25256228
11	0x3e0fb315	0.14033158
12	0x3dc5c453	0.096565865
13	0x3d87ef1b	0.066374026
14	0xbc6232fd	-0.013806102
15	0x3c89848d	0.016786838
16	0xbc0f5c8d	-0.008750093
17	0x3d05b251	0.03264076
18	0x3d1bc014	0.038024977
19	0x3e99ae09	0.3001559
20	0xbd1136dd	-0.035452712
21	0xbd0dede8	-0.034650713
22	0xbd9d4a34	-0.07680169
23	0xbd56acb3	-0.052410793
24	0x3d0e1877	0.0346913
25	0xbe9fb18c	-0.31190145
26	0xbd9fe286	-0.07806878
27	0x3db4a2a0	0.08820081
28	0xbe121316	-0.14265093
29	0x3cd679bb	0.026181092
30	0x3e2ffe5c	0.17186874
31	0x3e37a478	0.17933834
32	0x3c6b27f7	0.01435279
33	0x3ea5dc9a	0.32394868
34	0xbd31df6a	-0.043425955
35	0x3da01cfe	0.0781803
36	0x3da13b02	0.07872583
37	0xbd8eb477	-0.06968015
38	0x3d5f06be	0.05444979
39	0x3d8b0c48	0.06789452
40	0xbd14b2dd	-0.03630339
41	0x3dc41869	0.09574968
42	0xbd0f4d7a	-0.034985997
43	0xbe48c9c0	-0.19608212
44	0xbe893eb6	-0.26805657
45	0x3b82378f	0.0039739083
46	0xbe10f737	-0.14156805
47	0xbe241b5a	-0.16026059
48	0xbd27e792	-0.040992327
49	0xbd17aa52	-0.037027664
50	0x3d0d8b24	0.034556523
51	0x3d904a73	0.0704545
52	0xbd085df9	-0.033292744
53	0xbd8d2c0d	-0.06893168
54	0xbd43f669	-0.047842417
55	0x3d3f17b0	0.04665345
56	0x3d100470	0.035160482
57	0x3dc7f163	0.09762838
58	0x3c3bc124	0.0114596225
59	0xbea556ea	-0.32292873
60	0x3d7aab49	0.061198507
61	0xbeb10d8d	-0.3458065
62	0xbe0df6fe	-0.13863751
63	0xbbc797c0	-0.006091088

layers.6.running_mean f4 [64]
0	0x3fe5f0bd	1.7964092
1	0x00000004	6e-45
2	0x3fbb62cf	1.4639529
3	0x00000004	6e-45
4	0x3f118fdd	0.5686014
5	0x00000004	6e-45
6	0x400c196d	2.1890519
7	0x3f85f98f	1.0466784
8	0x00000004	6e-45
9	0x00000004	6e-45
10	0x3fb4dad1	1.4129277
11	0x3fc62711	1.5480672
12	0x40550643	3.3285072
13	0x3feea186	1.8643043
14	0x40604b40	3.504593
15	0x3f7a8212	0.9785472
16	0x00000004	6e-45
17	0x00000004	6e-45
18	0x00000004	6e-45
19	0x3f0d0d9c	0.5509889
20	0x00000004	6e-45
21	0x00000004	6e-45
22	0x3f83167c	1.0241237
23	0x4081f220	4.0608063
24	0x3dcc7b6d	0.09984479
25	0x409f08b7	4.969814
26	0x03df620c	1.31292725e-36
27	0x403d7afb	2.9606311
28	0x3f6b1f1f	0.9184436
29	0x3e5a023a	0.21289912
30	0x3edc03e1	0.4297171
31	0x40296c6d	2.6472428
32	0x3f00d7e3	0.50329417
33	0x3f37436f	0.7158727
34	0x00000004	6e-45
35	0x3ce219e3	0.027600234
36	0x408209a6	4.063678
37	0x00000004	6e-45
38	0x4021e08b	2.52933
39	0x00000004	6e-45
40	0x3f04428a	0.5166403
41	0x3d11c425	0.03558745
42	0x00000004	6e-45
43	0x3c9f21cd	0.019425297
44	0x3fa5f25b	1.2964586
45	0x401cf7da	2.4526277
46	0x00000004	6e-45
47	0x00000004	6e-45
48	0x00000004	6e-45
49	0x3d0b4943	0.034005415
50	0x00000004	6e-45
51	0x00000004	6e-45
52	0x00000004	6e-45
53	0x00000004	6e-45
54	0x40e3124d	7.095984
55	0x3e3d9df9	0.18517293
56	0x00000004	6e-45
57	0x00000004	6e-45
58	0x3f25ac8f	0.6471643
59	0x00000004	6e-45
60	0x4026724d	2.6007264
61	0x3e08cec1	0.1336012
62	0x3e5b4149	0.21411623
63	0x3d4b17fa	0.049583413

layers.6.running_var f4 [64]
0	0x40371d81	2.8611758
1	0x00000004	6e-45
2	0x4006f525	2.1087124
3	0x00000004	6e-45
4	0x3fd10a03	1.633118
5	0x00000004	6e-45
6	0x401e6cea	2.4753976
7	0x3fff1ff6	1.9931629
8	0x00000004	6e-45
9	0x00000004	6e-45
10	0x4000f5d1	2.0150034
11	0x405b008d	3.4219086
12	0x40438e45	3.0555584
13	0x40b7f0b0	5.748131
14	0x40c5b124	6.1778736
15	0x3fdf4c1c	1.7445102
16	0x00000004	6e-45
17	0x00000004	6e-45
18	0x00000004	6e-45
19	0x3f9410ee	1.1567667
20	0x00000004	6e-45
21	0x00000004	6e-45
22	0x3ff55033	1.91651
23	0x40830e08	4.095463
24	0x3e6bfe77	0.2304629
25	0x40d36024	6.605486
26	0x01b8ece4	6.7930847e-38
27	0x4069a1e7	3.6505067
28	0x3fd79c51	1.6844579
29	0x3e59f99c	0.21286625
30	0x3fa1a13b	1.2627329
31	0x40870f84	4.220644
32	0x3fae3625	1.3610274
33	0x3fd4296b	1.657514
34	0x00000004	6e-45
35	0x3ca949f8	0.020665154
36	0x40e0c1b5	7.023646
37	0x00000004	6e-45
38	0x41077931	8.467088
39	0x00000004	6e-45
40	0x3f8808d6	1.0627697
41	0x3d49bb90	0.04925114
42	0x00000004	6e-45
43	0x3cdd03b9	0.026979314
44	0x4010c475	2.2619908
45	0x4094892f	4.641746
46	0x00000004	6e-45
47	0x00000004	6e-45
48	0x00000004	6e-45
49	0x3e127874	0.14303762
50	0x00000004	6e-45
51	0x00000004	6e-45
52	0x00000004	6e-45
53	0x00000004	6e-45
54	0x4093579d	4.604445
55	0x3ebd7834	0.3700577
56	0x00000004	6e-45
57	0x00000004	6e-45
58	0x40250b94	2.5788317
59	0x00000004	6e-45
60	0x40a76708	5.231327
61	0x3eb86b5b	0.36019406
62	0x3ed76075	0.42065778
63	0x3d0e4efb	0.03474329

olin.weight f4 [4, 64]
0	0x3f63b22d	0.8894375
1	0xbaffea44	-0.0019524773
2	0x3e8f3c9c	0.2797593
3	0x3d8763c4	0.06610826
4	0x3e334ac5	0.17508991
5	0xbebace7c	-0.3648566
6	0xbe37445d	-0.17897172
7	0xbf00a7e1	-0.5025616
8	0x3ef189fd	0.4717559
9	0xbe9b1e5a	-0.30296594
10	0x3f3aef90	0.73021793
11	0xbe986405	-0.2976381
12	0x3f00b1dd	0.502714
13	0x3ed0b81a	0.40765458
14	0x3e71173b	0.23544018
15	0xbec0b5a8	-0.37638593
16	0x3f8bccc4	1.0921865
17	0x3eb983a8	0.36233258
18	0xbe25d52d	-0.16194601
19	0xbfa55caf	-1.291891
20	0xbf12d710	-0.5735941
21	0xba000e79	-0.0004884969
22	0xbde7aa6b	-0.113118015
23	0xbe87dd54	-0.26536047
24	0x3ee60ca4	0.4493152
25	0xbf24650e	-0.642167
26	0xbec7e5f8	-0.3904264
27	0x3eb0166e	0.34392112
28	0xbe92d9c8	-0.2868178
29	0x3f3f60e5	0.74757224
30	0x3e817443	0.25284013
31	0x3dc7728e	0.097386464
32	0x3f0adecd	0.54246217
33	0xbf325c33	-0.69671935
34	0xbf13f179	-0.57790333
35	0x3da971f9	0.08273692
36	0x3dbc2180	0.09186077
37	0xbe6c35c1	-0.2306738
38	0xbf251ede	-0.64500225
39	0x3de985ae	0.114024505
40	0xbc96677e	-0.018359896
41	0xbdf1d56c	-0.11808285
42	0x3e652638	0.2237786
43	0xbf3f9ff1	-0.74853426
44	0x3ddfcb8e	0.10927497
45	0x3b68f17e	0.0035544331
46	0x3e6d5b01	0.23179246
47	0x3f55546f	0.8333196
48	0xbda95682	-0.08268453
49	0x3d75e3ec	0.060031816
50	0x3e4e3da8	0.20140707
51	0x3dcb3671	0.09922493
52	0x3d821241	0.06351138
53	0x3d88a5db	0.066722594
54	0xbe173b92	-0.14768818
55	0x3e9dbc29	0.30807617
56	0x3e06ee98	0.13176954
57	0xbf49a7a8	-0.7877145
58	0x3f350238	0.7070651
59	0xbca35138	-0.019936189
60	0xbc8298f7	-0.01594208
61	0xbf49361a	-0.7859818
62	0xbeb0a021	-0.3449717
63	0xbd19e5ca	-0.03757266
64	0x3e56dcf6	0.20982727
65	0x3d8c3906	0.06846814
66	0x3bb62f75	0.0055598565
67	0xbefbc9d0	-0.49177408
68	0x3f00727d	0.50174695
69	0x3f132eb3	0.5749313
70	0x3f45ff4d	0.77342683
71	0xbf245424	-0.6419089
72	0x3c54a2ba	0.01297825
73	0xbf0681b2	-0.5254165
74	0x3eb4163d	0.35173216
75	0xbe7aab5a	-0.24479428
76	0xbf9edd4b	-1.2411283
77	0x3f79a42b	0.97516125
78	0x3e3b0b43	0.18266015
79	0x3f0e83e7	0.55670017
80	0x3e082d7b	0.132986
81	0x3f1347a4	0.5753119
82	0xbeb4b0de	-0.3529119
83	0x3ddd7d07	0.10814863
84	0xbf9774d0	-1.1832523
85	0xbecdd2a6	-0.40199775
86	0x3f862a33	1.0481628
87	0xbf7811fa	-0.9690243
88	0x3e1112f8	0.14167392
89	0xbd16fd5b	-0.036862712
90	0xbd590fd0	-0.052993596
91	0xbdc12a59	-0.09431905
92	0xbc2915e6	-0.010320162
93	0xbbcb2bce	-0.0062002903
94	0xbece511d	-0.4029626
95	0x3f4cd965	0.8001922
96	0xbdeb20f9	-0.114808984
97	0xbe14afc0	-0.14520168
98	0xbf2ac786	-0.667107
99	0xbed7e8df	-0.42169854
100	0x3f267ae4	0.65031266
101	0x3e3aa4a8	0.18226874
102	0x3f413a3e	0.75479496
103	0x3f89144d	1.070932
104	0xbea7cef2	-0.32775074
105	0x3dcf9a5b	0.10136863
106	0xbeffd01d	-0.49963465
107	0xbe80adbf	-0.25132558
108	0xbf1c7247	-0.61111873
109	0x3e3e17d3	0.18563776
110	0xbe12464e	-0.14284632
111	0xbe32f23a	-0.17475215
112	0xbee16403	-0.44021615
113	0xbde45250	-0.11148512
114	0x3f3e47bf	0.74328226
115	0x3e3eeccc	0.18645018
116	0xbdcf5e9b	-0.101254664
117	0x3e3b3951	0.18283583
118	0x3f5ea57a	0.8697125
119	0x3f2fe66e	0.6871098
120	0x3eb1c2d5	0.34718958
121	0xbe33a6f4	-0.17544156
122	0x3bd7d428	0.0065865703
123	0xbdbef1a3	-0.09323432
124	0xbf433784	-0.76256585
125	0xbdffdd6f	-0.12493407
126	0x3caa02f8	0.020753369
127	0xbef9ce18	-0.4879005
128	0x3dafffd6	0.08593719
129	0x3f2a24ae	0.6646222
130	0x3eaaf0da	0.3338688
131	0x3ea86ea5	0.32896915
132	0x3ec198df	0.37811944
133	0x3ee42281	0.44557574
134	0x3d61ef62	0.055159934
135	0xbe809850	-0.25116205
136	0x3f085441	0.5325356
137	0x3d1004c6	0.035160802
138	0x3e04b9a8	0.12961447
139	0x3e93fe50	0.28904963
140	0x3dbd7362	0.09250523
141	0xbe1ab875	-0.15109427
142	0xbebc1d86	-0.36741275
143	0x3ea2bf76	0.31786698
144	0x3e2a05e6	0.16603813
145	0x3e113cc8	0.14183342
146	0xbf10cdd4	-0.5656407
147	0x3dceb417	0.10092943
148	0xbf10884a	-0.5645796
149	0x3e24cd17	0.1609386
150	0xbe498e91	-0.19683291
151	0x3d4f4975	0.050607163
152	0x3f366394	0.71245694
153	0xbd8c6044	-0.06854299
154	0xbf3de274	-0.74173665
155	0x3ebf2119	0.3732994
156	0xbdcc76d8	-0.09983605
157	0x3f054fd7	0.5207495
158	0x3e3f9c87	0.18712054
159	0x3c372ce1	0.011180134
160	0xbe0e39d7	-0.13889252
161	0xbdb97734	-0.09055939
162	0xbe2d618b	-0.16931741
163	0x3dba0b43	0.09084179
164	0x3f234d4b	0.63789815
165	0x3c560626	0.013062989
166	0xbd7170a3	-0.05894531
167	0xbdb64c13	-0.08901229
168	0xbf3314a9	-0.699534
169	0xbd32fe2c	-0.04369943
170	0xbd6be28b	-0.057589095
171	0xbe45afb1	-0.19305302
172	0xbf1910e3	-0.5979139
173	0xbe955970	-0.29169798
174	0x3f354052	0.7080127
175	0x3ee12602	0.4397431
176	0xbd4f44f7	-0.05060288
177	0xbee0a9a4	-0.43879426
178	0x3df60a11	0.12013639
179	0x3f3980d7	0.7246222
180	0x3cb7a255	0.022416273
181	0xbec8d2fa	-0.39223462
182	0xbccd7565	-0.025080392
183	0x3ecb610b	0.39722475
184	0xbd8f4c5d	-0.06996987
185	0x3d9be87f	0.076127045
186	0x3f126e8f	0.5719995
187	0x3b9435bc	0.004523007
188	0x3ed43c6b	0.41452345
189	0x3e268c82	0.16264537
190	0xbe80ea46	-0.25178736
191	0xbcdbd1de	-0.02683347
192	0x3eba16e5	0.36345592
193	0x3d8fc4d7	0.07019966
194	0xbf73f6b4	-0.95298314
195	0xbefa4eda	-0.48888284
196	0xbe124f09	-0.14287962
197	0xbea0d985	-0.31415954
198	0xbe97afd7	-0.29626343
199	0x3e9a7aeb	0.30171904
200	0xbd8acd33	-0.0677742
201	0xbef160e5	-0.47144237
202	0xbe49ace4	-0.19694859
203	0x3f66fbce	0.90227973
204	0x3e515685	0.20443161
205	0xbf322030	-0.69580364
206	0xbf22e0cc	-0.6362426
207	0xbcf07ee4	-0.029357381
208	0x3efa4874	0.48883402
209	0x3f123baa	0.5712229
210	0x3f05dfac	0.5229442
211	0xbe0d5f9d	-0.13806005
212	0x3dfb9688	0.12284571
213	0xbeb8a2e1	-0.36061767
214	0x3d9d7737	0.07688754
215	0x3e8ce0e6	0.27515334
216	0x3f68b5d5	0.90902454
217	0x3e848401	0.2588196
218	0x3ae2ef03	0.0017313663
219	0xbe01e503	-0.12685017
220	0x3f395b0d	0.7240456
221	0xbddbd633	-0.10734215
222	0xbd8dcb7d	-0.06923578
223	0x3e9663b0	0.2937293
224	0xbda956f2	-0.082685366
225	0x3ec04e55	0.37559763
226	0x3daee7fe	0.08540343
227	0xbf8e427c	-1.111404
228	0x3e7c99ca	0.24668041
229	0x3e933b4d	0.2875618
230	0xbe803ac3	-0.25044832
231	0xbd1af7bf	-0.037833925
232	0xbe1613ed	-0.14656039
233	0x3f24843d	0.6426428
234	0xbf13245f	-0.5747737
235	0xbe05f4d0	-0.1308167
236	0x3ec70970	0.38874388
237	0xbfac128d	-1.3443161
238	0xbf40e61f	-0.75351137
239	0x3ec0c3d9	0.3764942
240	0xbeea37fa	-0.45745832
241	0xbe0afb00	-0.13572311
242	0x3ebd8aec	0.3702005
243	0x3ececd86	0.40391177
244	0xbe98c0ed	-0.2983469
245	0x3eabd897	0.33563682
246	0x3ea7ec46	0.3279745
247	0x3d9b7c96	0.07592122
248	0x3db013ab	0.08597501
249	0xbcb1d7ba	-0.021709312
250	0xbec8afe0	-0.39196682
251	0x3f6e8ef8	0.93186903
252	0x3da128d9	0.07869119
253	0x3e94e6cb	0.2908233
254	0xbe11cd8b	-0.14238565
255	0xbf99dea4	-1.202107

olin.bias f4 [4]
0	0xbe524a40	-0.20536137
1	0x3d2a7abe	0.041620962
2	0xbd00bcd3	-0.031430077
3	0x3e843033	0.25818023
