a_target.pth (torch_old, 57599 bytes, 18 tensors)

layers.0.weight f4 [33]
000000 2e 90 4a 3f 6b 6c a1 3e c6 7d 4a 3f a2 69 ef bc
       0.7912625 0.3152803 0.79098165 -0.029225174
000010 55 a9 74 3c cc 57 b5 bd ff 76 04 3d 97 7b 9c 3d
       0.01493295 -0.088546365 0.032340046 0.076407604
000020 1c 40 9c 3d 1b 2e 39 3d 24 ea 90 3d ad e1 a9 3d
       0.076294154 0.045209985 0.07075909 0.08294997
000030 c8 09 96 3d 83 c0 8d 3f 9d 43 0f 3f 15 5d 91 3f
       0.073260844 1.1074375 0.55962545 1.1356531
000040 4b 84 0e 3e d9 ec 89 3d ba 7a ac 3d 6b a6 e9 3d
       0.13917653 0.06734628 0.08421846 0.11408695
000050 c2 43 06 3e 33 56 b2 3d 4a e6 51 bd ce ec 09 3f
       0.13111785 0.087078474 -0.05124501 0.5387696
000060 b0 db 4e 3e 63 3b b8 3e da 9e 91 3f 2a 5e 7d 3f
       0.20200992 0.35982808 1.1376603 0.9897181
000070 3d 10 87 3f 94 81 34 3e 02 6b 03 3f a1 59 1e 3e
       1.055183 0.17627555 0.51335156 0.15463878
000080 52 c4 8e 3f
       1.1153662

layers.0.bias f4 [33]
000000 58 4a e6 3c f0 71 d7 bd 2c 02 82 bd 57 26 e4 bc
       0.028111622 -0.10519779 -0.063480705 -0.027850313
000010 6b 13 40 bd 67 c7 22 3b f0 ee 2b bd d5 b0 96 bd
       -0.04689352 0.0024838091 -0.041975915 -0.07357947
000020 f8 3d 0c bd 67 e7 c2 3d 91 eb d0 3c 88 ff ea 3b
       -0.034238786 0.09516793 0.025502952 0.007171575
000030 6d f7 56 be 2d 56 e1 3b f5 fe f9 3d 9b c5 90 bc
       -0.20992823 0.006876728 0.12206832 -0.01767235
000040 07 17 b6 bd 71 25 7d 3e 94 1b 63 3c a2 0d af 3c
       -0.08891111 0.24721314 0.013861556 0.021368805
000050 ad 59 9e bc 6c b0 03 be 94 a5 19 3d 10 d2 4a 3e
       -0.01932987 -0.12860268 0.037511423 0.19806695
000060 74 ca 1d be aa b0 3a 3d 79 3c 8d be 60 22 33 3e
       -0.15409261 0.045578636 -0.275852 0.17493582
000070 e4 c1 88 3e 19 b0 11 3e 4d dc 65 be f9 90 b2 be
       0.26710427 0.14227332 -0.2244732 -0.3487623
000080 75 63 9e 3e
       0.30935255

layers.0.running_mean f4 [33]
000000 21 4d d9 bd 64 15 34 c0 ce 7c 4e 3b 0f b8 6b 3f
       -0.10610414 -2.8138056 0.0031507495 0.92077726
000010 db cf 61 bc e1 8e ec 3a c6 82 69 3b dd 19 4e bb
       -0.013782467 0.0018047952 0.0035630926 -0.0031448521
000020 f3 67 8e 3b ca 69 c1 bb a4 87 e0 bb 27 1c e1 3b
       0.004345888 -0.0059025036 -0.006852107 0.006869811
000030 f9 5c 03 3c d3 25 3b 3e a0 91 3e c0 93 1b fd 3d
       0.008017772 0.18276148 -2.9776382 0.12358775
000040 d5 a2 c8 3c 50 2f f6 bc 56 17 28 3d 40 fd 3f be
       0.024491707 -0.030051857 0.04103788 -0.18748951
000050 f3 a4 cc 3d 4f a4 3b 3d 52 29 62 3b f6 38 ea bb
       0.09992399 0.045810994 0.0034509492 -0.0071479036
000060 30 f6 0d 3e 01 b4 6c bb 76 72 77 bd fc ff 7f bf
       0.13863444 -0.0036118033 -0.060411893 -0.99999976
000070 59 e4 a6 bd 00 00 00 00 fc ff 7f 3f 00 00 00 00
       -0.081490226 0.0 0.99999976 0.0
000080 be 84 8e bc
       -0.01739728

layers.0.running_var f4 [33]
000000 03 73 6c 40 e1 22 2a 3e f3 1d 88 40 04 3f 5d 3a
       3.6945198 0.16614868 4.253656 0.0008439871
000010 77 20 79 3d e7 6a 76 3b f3 ff b0 3d 6e c0 3e 3e
       0.060821977 0.003760034 0.086425684 0.18628094
000020 8b 86 36 3d c3 ac d6 3d b3 92 01 40 aa 0c e7 3e
       0.044561904 0.104821704 2.0245788 0.4512685
000030 a8 de fc 3f 73 14 b3 41 4f eb 52 3f 40 53 bf 41
       1.9755449 22.384985 0.823903 23.91565
000040 69 99 c1 3d ec d8 b8 3e f5 ff 9f 3d 1b 17 db 3e
       0.09453089 0.36102998 0.07812492 0.42791066
000050 2a 75 26 40 d7 5d c9 3f 83 2a d1 3e ae fa 11 41
       2.6009011 1.5731763 0.40852746 9.123701
000060 64 74 71 40 d1 29 0c 41 65 71 fe 41 04 00 00 00
       3.772729 8.760209 31.805368 6e-45
000070 9d 93 00 42 04 00 00 00 04 00 00 00 04 00 00 00
       32.144154 6e-45 6e-45 6e-45
000080 f5 90 a7 3e
       0.3272778

layers.1.weight f4 [128, 33]
000000 1b 3c 9a 3e 45 e3 7d 3d ad 0f 0b bf 53 b0 19 be
       0.30123982 0.06198432 -0.54320794 -0.15008669
000010 db 37 b1 be 30 6e 20 bd 14 f0 ac bd 41 eb 90 bb
       -0.34612927 -0.039167583 -0.08444229 -0.0044225757
000020 79 46 d0 3d 1b 9e f6 3d 97 19 8b bd 57 87 48 3e
       0.101696916 0.12041875 -0.0679199 0.19582878
000030 fd 0d 0e be d4 94 97 be 37 d2 8c 3c 93 cc bb 3d
       -0.13872524 -0.29605734 0.017190082 0.09169879
000040 ed 44 8a be 1f 1c 72 3d 77 0b 13 3f 71 69 d8 3e
       -0.2700571 0.05910885 0.5743937 0.42267945
000050 ea 9d f2 3d bb 37 c7 be 40 0c b6 be 4d cd 0c bf
       0.11846526 -0.38909706 -0.3555622 -0.55000764
000060 19 b8 6b 3e cf 28 80 3e 3b d2 29 be ee 4c 22 bf
       0.23019446 0.25031134 -0.16584103 -0.63398635
000070 f5 47 a4 bc e3 24 14 bf 61 1b c1 3e 71 a8 13 3f
       -0.020053843 -0.57868785 0.377162 0.57678896
000080 b6 1a 0a 3e 3d 93 27 3e 50 1f f8 3d f1 3e 06 3d
       0.13486752 0.1636476 0.121153474 0.03277487
000090 cc fc 8c be 69 dc 05 3e c4 6d 15 3d 22 f5 11 3e
       -0.2753662 0.13072361 0.036481634 0.14253667
0000a0 ad e9 98 3c 71 15 af bc 2e 36 e6 3e e4 91 b6 3e
       0.018666113 -0.021372529 0.4496321 0.3565818
0000b0 69 1b c7 3e 61 be a7 bd 4a 4a 91 3d aa ff 61 bd
       0.388881 -0.08190609 0.07094248 -0.05517546
0000c0 2d 25 ed 3e 72 36 e0 be d0 1f 37 be 11 50 2c 3d
       0.46317425 -0.43791538 -0.1788323 0.042068545
0000d0 89 52 5a bd 45 59 5f 3e ca bc 28 bf 90 6c 38 ba
       -0.053301368 0.21811397 -0.6591307 -0.000703522
0000e0 09 db a6 3d 2f 0d 32 bd 04 4a e2 3e b2 33 2b 3e
       0.081472464 -0.043469604 0.44197094 0.16718939
0000f0 36 5c 1c be 6a 72 9b 3d 9f 6c 9c be 55 36 4c 3d
       -0.1526955 0.07590182 -0.3055162 0.049856503
000100 45 5a e6 3e 12 f8 ae be 61 ef cb be c9 60 7d 3e
       0.44990745 -0.34173638 -0.3983107 0.24743952
000110 2a d4 94 be be 36 1d 3e eb b1 84 3e 58 be 24 3f
       -0.29068118 0.15352914 0.2591699 0.6435294
000120 82 d5 bc be da 74 27 3d 4b 1b ef 3e 15 56 a9 3d
       -0.36881644 0.040882923 0.4670051 0.08268372
000130 ff 32 0e 3e a8 16 39 be 62 ad 10 be 56 61 16 3f
       0.13886641 -0.18075049 -0.1412864 0.5874227
000140 47 a0 7b 3e d3 65 8b 3c ec 21 58 3c 38 37 ef 3d
       0.2457286 0.017016327 0.013191681 0.11680454
000150 b6 a6 a0 3d 3c d2 65 be 4c 49 05 3f cd 4e e2 3c
       0.078442976 -0.2244348 0.5206497 0.027625466
000160 c1 d1 0c 3e dd 7b 9f 3e a3 00 db bd 89 98 40 3e
       0.1375189 0.31149188 -0.10693481 0.18808188
000170 71 d4 ca bd ba 3b dd 3d 5b 41 d9 be 76 0d 1c 3e
       -0.09903801 0.108024076 -0.42432675 0.1523951
000180 df 77 3d 3e 58 37 e5 bb 6a 4e 8c 3e 23 ad b4 3e
       0.18502758 -0.006995123 0.27403575 0.35288343
000190 b4 9d b7 3e 23 86 ef 3e 79 e7 2d be 04 fb 49 3f
       0.35862505 0.46782026 -0.16982831 0.78898644
0001a0 29 9c ea be 72 27 d9 3e 31 8f 68 bd d0 04 98 bd
       -0.45822266 0.42412907 -0.056777183 -0.07422793
0001b0 f4 f0 60 be 4d 53 a9 bd f0 7b 7a 3d ae 0f 47 3e
       -0.21966916 -0.082678415 0.061153352 0.19439575
0001c0 94 68 8d be 5d 0d 68 be 07 77 88 bd 74 4f ce bd
       -0.2761885 -0.22661348 -0.06663328 -0.10073748
0001d0 cd fd d0 bd 31 54 e0 3e 7a 0b 62 be ee 8c 9c 3e
       -0.10204659 0.43814233 -0.2207469 0.3057627
0001e0 2e 5a b2 be 03 8e 41 ba d6 c1 cc be bb aa 19 be
       -0.34834427 -0.0007383527 -0.39991635 -0.15006535
0001f0 9d 49 8e be 9b 37 0f be 18 5a 19 3d 25 35 18 be
       -0.27790537 -0.13986056 0.037439436 -0.14864023
000200 9d 1f b2 3d aa 60 02 bd ce ff 6f 3d 61 54 f5 be
       0.08697436 -0.031830467 0.058593564 -0.47915938
000210 3e 8e 6b 3e ac b6 2c 3e 38 5a fc be 85 58 6b bd
       0.2300348 0.16866559 -0.4928758 -0.057457466
000220 26 49 b3 3e 28 bb 3b bc 8c 36 43 3e 97 c5 b9 3d
       0.35016745 -0.011458196 0.19063777 0.090708904
000230 b3 58 0e be 2b 0f 0d 3c ed 89 00 3d c2 de a8 bd
       -0.13901024 0.008609573 0.031381536 -0.08245613
000240 7d a7 2f be 9f 5e 50 3e 22 cd 2c be 1f 8b 43 3f
       -0.17153735 0.20348595 -0.16875127 0.76384157
000250 f6 8d 49 be 4b 38 81 be 11 cc 8e be 88 cf 62 3f
       -0.1968306 -0.2523826 -0.27890065 0.8859792
000260 7e 83 3d 3c e9 7a 05 be 34 22 14 be 03 a5 f1 bd
       0.011566995 -0.13035168 -0.14466172 -0.117990516
000270 cf 31 55 be e2 07 9c 3e bd 68 4d be 89 2e 8e be
       -0.20819782 0.30474764 -0.20059486 -0.27769879
000280 e2 1f db bc b9 6e c2 be 64 32 62 3e 3a e1 8b 3e
       -0.026748601 -0.379751 0.22089535 0.27320272
000290 34 29 d6 3d 41 e0 94 be 38 dc 5a 3d 4d af 50 3e
       0.104570776 -0.29077342 0.053432673 0.20379372
0002a0 db 18 73 3d c3 b4 b9 bd 27 29 9a be 04 44 37 bd
       0.059349876 -0.09067681 -0.30109522 -0.0447426
0002b0 96 d4 e0 be ca 9f 2b bd 9d c3 8b 3c 19 84 68 3d
       -0.4391219 -0.041900434 0.01706105 0.056766603
0002c0 0f 65 0c 3d b8 31 5d 3e 69 8f 2d 3f 37 7e 55 3d
       0.034276064 0.21600997 0.6779695 0.05212232
0002d0 b9 66 56 be 73 10 3f bd 51 f5 1f 3e b7 d9 08 3e
       -0.20937623 -0.046646547 0.15620925 0.13364302
0002e0 f4 ef fa 3d 0c 33 b6 bd bc 38 78 be 96 5b 1a 3d
       0.12252799 -0.08896455 -0.24240392 0.037685
0002f0 c4 13 22 3e 8f 8b 12 bd 2b c6 aa 3d ff dd c9 be
       0.15827852 -0.035777625 0.08338579 -0.39427182
000300 f8 a3 7d be c6 4c c0 3e 56 af ac bd 59 7b f0 3d
       -0.2476958 0.37558573 -0.0843188 0.11742277
000310 68 d7 a3 3e 33 2e be be 09 c0 2b 3d 2a c0 cc 3e
       0.3200028 -0.37144622 0.041931186 0.3999036
000320 60 38 aa be 9f 22 8b be e9 5d 3a be c5 52 96 bd
       -0.33246136 -0.2717485 -0.18199886 -0.07340006
000330 37 0f 77 bd 59 f9 2f 3e 4b 79 c5 3d 5a 12 25 3e
       -0.060317244 0.17184962 0.096422754 0.16120282
000340 02 e5 67 3e f1 8c a8 3e a9 52 11 be fd 40 31 3e
       0.22645953 0.3292003 -0.14191689 0.17309947
000350 17 87 19 bf 50 e5 ad 3d f2 50 88 be 52 6a 05 be
       -0.59971756 0.084910035 -0.26624256 -0.13028839
000360 f3 a7 a9 3e b5 1c a3 3d 31 7d 6c be de fb 90 3e
       0.33135948 0.0796446 -0.23094632 0.2831716
000370 cd 8b cc bd e7 6d a8 3e 81 26 3d be 7f f0 da 3e
       -0.099876024 0.3289635 -0.1847172 0.4276161
000380 09 9e 95 3e 9e 5b 08 be 73 c6 f7 3e fb 49 76 be
       0.29222134 -0.13316199 0.48393592 -0.24051659
000390 d5 fa 64 3e 49 68 49 3e 75 cb 4f bd 0b 04 ff bc
       0.2236131 0.19668688 -0.05073114 -0.031129858
0003a0 48 df 5f 3d 56 ef 23 be 9a a0 8b 3b 93 37 96 bd
       0.054656297 -0.16009268 0.0042610886 -0.07334819
0003b0 e1 1d 0a 3e 8f c7 1a bd e1 78 9e 3d f1 44 8a bd
       0.1348796 -0.03778797 0.077378996 -0.06751431
0003c0 4c d2 5a 3d 6d 8a 90 3d aa ea c5 3b 56 61 2d 3e
       0.05342321 0.070576526 0.006039937 0.16931662
0003d0 1f 4f 07 3d 78 d2 67 bd f7 d1 40 3e 81 c2 4d 3c
       0.03303444 -0.056597203 0.18830095 0.01255858
0003e0 b6 91 5b bd 30 dc 12 be 20 16 a6 bd 20 34 e8 bb
       -0.053605758 -0.14341807 -0.08109689 -0.007086292
0003f0 ab 38 8e 3c a1 fe 09 be 4f 97 24 bd 1c cd 0e bd
       0.017361006 -0.1347604 -0.04018336 -0.034863576

layers.1.bias f4 [128]
000000 95 ea a8 be 5d ba 62 be 72 ac b2 3d 8e 42 53 be
       -0.32991472 -0.22141404 0.087242976 -0.20630857
000010 85 1d b8 bd fa d4 61 be 06 c5 af bd 9a 2e 02 bf
       -0.089900054 -0.220539 -0.08582501 -0.5085236
000020 ce 98 d2 be 28 c3 90 bb 92 bc f8 3d b5 69 a7 3c
       -0.41132206 -0.0044177957 0.12145342 0.020436147
000030 09 4b cd be bd fd 12 bf 28 3e b9 be 67 cb 12 be
       -0.4009631 -0.57418424 -0.36180234 -0.14335404
000040 89 31 63 3e 2d b8 09 bf 3d a1 cc be 39 5f fe be
       0.22186865 -0.53796655 -0.39966765 -0.49682024
000050 b0 ad 27 3d d6 dc 8a 3c dc 03 e2 be fe a6 ca 3e
       0.040937126 0.016951006 -0.4414357 0.3958053
000060 0c c5 ac 3d b8 b8 1e be cd 9b a4 3b 31 33 bc be
       0.08436021 -0.15500152 0.0050234557 -0.36757806
000070 26 f1 3c be 2c 7e 0e bf 5a 23 4b bd 8e b9 c1 be
       -0.18451366 -0.55661273 -0.04959426 -0.3783688
000080 dc f2 fb bd cf 04 98 bd 35 91 41 3e c5 54 cf bd
       -0.12302181 -0.07422792 0.18903048 -0.101235904
000090 b7 eb 63 3e 4a 17 af 3d 44 a8 d2 be c1 9a 8d be
       0.22257887 0.08549364 -0.41144 -0.2765713
0000a0 81 45 08 be 7f e5 c0 be a1 85 b8 3e e2 19 f4 3d
       -0.13307764 -0.37675092 0.3603945 0.11918999
0000b0 61 fb 5e be e9 98 c8 bc 40 70 fd 3e 10 55 e2 be
       -0.21775581 -0.024486976 0.49499702 -0.44205523
0000c0 16 43 21 3d 7f e0 78 be c2 88 8d be 0e 8f 19 bf
       0.03937062 -0.24304388 -0.276434 -0.5998391
0000d0 cd fa e2 be 94 53 e2 be ab cb e4 be 3d 83 b8 be
       -0.4433197 -0.4420439 -0.44686636 -0.36037627
0000e0 52 14 63 3d dd ed 27 be 62 63 d7 be 5f 0f 5d be
       0.0554393 -0.16399331 -0.4206801 -0.21587895
0000f0 87 98 9f 3c b0 56 83 be a6 5d c2 3d ac 92 b1 3d
       0.01948191 -0.25652075 0.09490518 0.086705536
000100 f6 94 83 3e e2 2c 6a be c2 4f 02 bf 09 ed 42 bf
       0.25699586 -0.22868684 -0.5090295 -0.76142937
000110 ac b8 d0 bd 92 5a ea bd af ae 2a bd bc 61 19 bb
       -0.10191473 -0.11443056 -0.041670498 -0.0023404201
000120 5c 2d 93 3c a2 1f 2c 3c b7 c0 10 be 4e d5 d7 3c
       0.017965965 0.010505589 -0.14136015 0.026346829
000130 2e 8b c9 be 62 3e 46 bc d1 81 ce 3e c0 5b 71 3d
       -0.39363998 -0.012099834 0.40333417 0.05892539
000140 e4 98 cd 3e f2 42 ef be 6d ac a6 3c c2 77 9c be
       0.4015571 -0.46730763 0.02034589 -0.30560118
000150 4f ed d1 bd 7f e0 e5 3d c7 a8 f6 be 3c 49 6a 3c
       -0.10250341 0.1122446 -0.48175642 0.014299687
000160 11 75 6a bc fe 8e c8 3e f8 4b 06 be df b2 57 3d
       -0.014310137 0.39171594 -0.13114917 0.05266082
000170 37 3f b0 3c dc db ae be b6 dd ce bd 02 c8 ee bd
       0.021514518 -0.34152114 -0.10100882 -0.11659242
000180 5c 81 30 3d 76 93 79 be b4 3c fb bd 92 92 26 be
       0.043092117 -0.24372658 -0.122674376 -0.1626685
000190 6c 60 b8 bc 70 74 c9 be c1 a9 38 be 73 5b 1f bf
       -0.022506915 -0.39346647 -0.18033506 -0.62248915
0001a0 d5 f4 f4 be 62 c1 27 be 69 f2 f9 be 9a 46 a8 bd
       -0.47843042 -0.16382363 -0.48817757 -0.08216591
0001b0 ac d0 4b bd bc b6 91 be 55 00 64 be ad 7d 74 be
       -0.049759552 -0.28459728 -0.22265752 -0.23876067
0001c0 7a be 2d be a6 ba c7 bd a1 9d 11 be 63 df d5 be
       -0.16967192 -0.09752397 -0.14220287 -0.41771993
0001d0 ee f1 3e be 2d ba 8e bd dc 21 a5 3d e2 27 90 3d
       -0.18646976 -0.06969104 0.08063099 0.07038857
0001e0 2e 7c 00 be 53 f5 d1 be 10 e4 db bc f6 b3 97 be
       -0.12547371 -0.4100748 -0.026842147 -0.29629487
0001f0 8f 94 91 be fb a3 c5 bd 01 9d ba be 7c 53 d7 be
       -0.28433654 -0.096504174 -0.3644791 -0.4205588

layers.3.weight f4 [128]
000000 57 6f b0 3e 7e 05 83 3e 01 64 03 3f 84 6f 26 3f
       0.34459946 0.25590128 0.5132447 0.6501391
000010 39 30 40 3f 5a 0b 31 3f 0f e9 1b 3f 91 dc 81 3e
       0.7507358 0.69157946 0.60902494 0.2536359
000020 d3 b7 29 3f f2 9a ef 3e e7 0a 68 3f 18 08 3b 3f
       0.6629612 0.467979 0.90641636 0.73059225
000030 11 6d f3 3e f4 3e d0 3e f8 6e 37 3f 89 7a da 3e
       0.4754415 0.4067303 0.716537 0.42671612
000040 77 c4 3c 3f 15 b6 19 3f d1 5e 68 3f c6 78 2d 3f
       0.7373728 0.6004346 0.9076968 0.6776241
000050 a4 36 47 3f 86 15 6c 3f 9c 60 14 3f 04 d6 25 3f
       0.7781775 0.9222034 0.57959914 0.64779687
000060 df 31 30 3f a2 02 92 3f f6 c6 e0 3e 8c 00 3c 3f
       0.688261 1.1407053 0.43901795 0.73438334
000070 e6 2a 20 3f bf 8a fc 3e 1d f1 4b 3f 26 af a0 3e
       0.6256546 0.49324605 0.79664785 0.31383628
000080 ef e7 4e 3f c0 fd e6 3e c1 a6 7a 3f 09 ee 12 3f
       0.8082265 0.4511547 0.97910696 0.5739446
000090 ca 76 22 3f 0c 32 0a 3f 90 2c 14 3f 6b 1c 06 3f
       0.6346251 0.53982615 0.57880497 0.5238711
0000a0 eb da 0d 3f c8 e9 2f 3f 12 0e 1f 3f 12 bc 2c 3f
       0.5541217 0.68716097 0.62130845 0.6747447
0000b0 03 9f e9 3e 45 ad 12 3f 14 44 9b 3e 80 71 01 3f
       0.4562913 0.5729564 0.30325377 0.5056381
0000c0 6a fd 2a 3f fb 1b ea 3e 6b 99 75 3f f2 45 58 3f
       0.6679293 0.45724472 0.9593722 0.8448173
0000d0 3a c1 ad 3e 0f fb 0e 3f 69 d9 2d 3f c0 87 fa 3e
       0.33936483 0.55851835 0.67909867 0.48931694
0000e0 83 f9 05 3f 8d 08 24 bf 27 6e 25 3f 86 53 11 3f
       0.5233385 -0.6407555 0.64621204 0.5676807
0000f0 d1 5f 3a 3f 7c 83 a3 3e 56 08 02 3f 70 05 eb 3e
       0.72802454 0.31936252 0.5079397 0.45902586
000100 cb 76 12 3f aa 3d db 3e 5b 15 d4 3e 05 9e 2c 3e
       0.57212514 0.42820483 0.41422543 0.16857155
000110 be 28 43 3f a3 52 5c 3f 29 13 e8 3e 62 2c bc 3e
       0.7623404 0.86063594 0.45327118 0.3675261
000120 66 9b 10 3f 9e 66 23 3f ce 89 e9 3e 84 44 3a 3f
       0.5648712 0.63828456 0.4561295 0.72760797
000130 6f c2 38 3f 0d d6 2d 3f 1e 19 31 3f 4a 32 08 3f
       0.7217168 0.6790474 0.6917895 0.53201735
000140 72 68 31 3f 1c 20 08 3f 3c 29 20 3f 0e 3f 2e 3f
       0.69299996 0.53173995 0.6256292 0.68064964
000150 50 db 20 3f f2 da 05 3f 00 b8 d4 3e 49 58 2d 3f
       0.62834644 0.5228721 0.4154663 0.6771284
000160 4e 11 71 3f c7 8a ef 3e f2 78 1c 3f e2 65 20 3f
       0.9416703 0.46785566 0.6112205 0.6265546
000170 96 64 28 3f d8 4b 1a 3f 23 df fd 3e b0 e1 05 3f
       0.6577848 0.6027198 0.49584302 0.52297497
000180 0c e4 d4 3e 93 81 ec 3e b5 91 35 3f fc 0b 09 3f
       0.41580236 0.46192607 0.70925456 0.5353391
000190 d9 0a 65 3f 9a 65 fe 3e 89 23 22 3f be ed c2 3e
       0.8946968 0.4968689 0.6333547 0.38072008
0001a0 fd 3b 5c 3f 62 d9 e5 3e c2 6b 18 3f 57 a1 3a 3f
       0.86029035 0.44892412 0.59539425 0.72902435
0001b0 c8 9a 2a 3f 71 b2 30 3f 4a 6a 20 3f 9d 9f 11 3f
       0.6664243 0.6902228 0.62662184 0.56884176
0001c0 e8 c0 2e 3f d8 b2 65 3f 75 52 2f 3f a4 7d 85 3e
       0.682631 0.8972602 0.68485194 0.2607242
0001d0 b8 1f 1f 3f b6 3f f7 3e 42 db 82 3f 71 c2 ce 3e
       0.62157774 0.48290795 1.0223162 0.40382722
0001e0 6f 60 2f 3f 0f e8 13 3f 83 f2 82 3f d4 41 2b 3f
       0.6850652 0.5777597 1.0230259 0.6689732
0001f0 94 f7 0d 3f 9a a4 fa 3e 72 9f 3c 3f 90 6d f1 3e
       0.554559 0.48953706 0.73680794 0.47153902

layers.3.bias f4 [128]
000000 b6 93 ee be 37 9b 24 bf bb 64 8c bd 94 60 b3 3c
       -0.4659707 -0.6429934 -0.0685515 0.021896638
000010 05 db 65 3e 01 61 94 3e 9b e7 06 3f 32 a3 cc be
       0.2244683 0.28980258 0.5269715 -0.39968258
000020 22 d1 9e bb 5b 63 64 be 0e cf 5a 3e cb 11 aa 3e
       -0.004846708 -0.22303526 0.21368048 0.332167
000030 b3 30 d0 3d 17 ea fb bd 43 00 a3 3e cf 39 cd 3d
       0.10165539 -0.123005085 0.31836137 0.10020792
000040 bb 04 d0 3d ec 5e 8e 3e d3 bc cd 3e b8 81 a1 3e
       0.10157152 0.27806795 0.40183124 0.3154428
000050 21 d3 5b 3e 2f 46 4e 3e b5 8f 44 3e 58 f4 d0 bd
       0.21467258 0.2014396 0.19195445 -0.10202855
000060 9a a9 97 3e 72 e2 7b 3e f1 3b 6e be da d3 01 bf
       0.29621583 0.24598101 -0.23265053 -0.50713885
000070 54 ea 88 3e 22 53 6d bd 41 e2 d2 3d 5a ae 8a 3d
       0.26741278 -0.05794061 0.10297061 0.06771536
000080 b5 7c b1 3e 46 2e a5 bc d7 de ec 3e 66 38 da 3a
       0.34665456 -0.020163666 0.46263763 0.0016648888
000090 a4 6c c2 3e 04 d9 eb 3d 60 f9 aa be 93 ed c4 bd
       0.3797351 0.11516002 -0.33393383 -0.09615626
0000a0 77 b7 79 3e 47 fd 2d be b5 9b ab 3e 12 e0 e1 be
       0.24386393 -0.16991149 0.33517233 -0.44116265
0000b0 99 65 c5 bd 65 4b a7 3e 3a aa a8 3e 9d ed ba 3d
       -0.09638519 0.3267471 0.32942373 0.091273524
0000c0 56 dc 2a 3f 76 a5 e3 bd e6 76 6d be e4 a1 bc 3d
       0.66742456 -0.111155435 -0.23189887 0.09210566
0000d0 e7 e1 ba 3e e3 e9 30 be 32 8d aa 3e 0b bd a5 3e
       0.36500475 -0.1727672 0.33310848 0.3237079
0000e0 3b 66 14 bd 00 f1 b9 be 6b c3 80 3d 4f 0b 2a be
       -0.036230307 -0.3631668 0.06287273 -0.16605876
0000f0 05 71 08 3f 3e ff 70 bf 7f 94 8f be 0b 49 ce 3e
       0.53297454 -0.9413947 -0.2804298 0.40290102
000100 3c 4c de 3e 9a 13 bf 3e 48 73 67 3d 9b b4 2b bf
       0.43417537 0.37319642 0.056506425 -0.6707246
000110 a4 27 a4 3d 3d ab 33 3f db 38 db 3e 97 0b 71 3e
       0.08015373 0.70183164 0.42816815 0.23539577
000120 4e 7d ab 3c 1d ee 12 3f 55 fb fe 3e 6e b0 fd bc
       0.020933773 0.5739458 0.49801126 -0.030967917
000130 e6 e7 aa 3e e6 2c 79 3e 0b f4 37 bd 7f 2f 94 3d
       0.3338005 0.24333534 -0.044910472 0.07235622
000140 99 18 80 bd de cc 0a 3e 2b 9b c0 be b6 7c d4 3e
       -0.06254692 0.13554713 -0.37618384 0.41501397
000150 02 06 14 3e 7a e2 f4 3d d0 3c dc bd 0d ec d5 3e
       0.14455417 0.119572595 -0.107537866 0.41781655
000160 2d 50 a9 3e 1f c3 80 3e 86 01 05 bf b0 dd 68 3d
       0.33068982 0.25148866 -0.5195545 0.056852043
000170 a5 06 0c 3e 63 01 46 3f a4 0a db 3d fb f4 df be
       0.1367441 0.77345866 0.10695389 -0.43741593
000180 52 7e d1 be c2 a0 cf 3e 47 f2 7e 3e 56 6c 06 bf
       -0.40916687 0.40552336 0.24897109 -0.5250906
000190 0b f7 6e 3c 74 25 a2 3e 8e 26 6a bd a4 22 8a bd
       0.014585267 0.316692 -0.057165675 -0.067448884
0001a0 1b ce 90 3e ae 1c f5 bc 64 b9 1d 3f 31 8b 48 3c
       0.28282246 -0.029920902 0.6161101 0.012240217
0001b0 d3 45 0c be b1 ef df 3e 96 ce 84 3e b4 cf 7b 3e
       -0.13698511 0.43737558 0.25938863 0.24590951
0001c0 fc b5 0e 3f cf 46 00 3f 29 c6 76 3e 6a d6 0a 3e
       0.55746436 0.50108045 0.2409903 0.13558355
0001d0 6d bd 26 3e eb a3 67 be 29 77 c0 bc 35 47 db be
       0.16283198 -0.22621123 -0.02349432 -0.42827764
0001e0 b8 b0 9a 3e 7a c0 d5 3d 8f cf 68 3e 57 ca dd 3d
       0.3021295 0.104371026 0.22735427 0.10829609
0001f0 b2 ff 9f 3d 1a d0 3e bd 76 7c de 3e 96 43 0c bd
       0.07812442 -0.04658518 0.4345433 -0.034244142

layers.3.running_mean f4 [128]
000000 c4 35 29 3d 94 c7 3c 3e b6 58 f7 3e c5 ff bf 3d
       0.04131104 0.18435508 0.4830987 0.09374956
000010 88 8b 16 3e 2c b3 0a 3e 41 b4 8a 3e 04 00 00 00
       0.14701664 0.13544911 0.27090648 6e-45
000020 04 00 00 00 6a 65 01 3f a0 27 97 3e 83 33 b2 3d
       6e-45 0.5054537 0.2952242 0.08701231
000030 ad 66 05 3d 90 32 5c 3d f3 2e bb 3d 7a cd 2f 3e
       0.032568622 0.053759158 0.09139814 0.17168227
000040 d0 f8 13 3f 1c 54 a6 3d 93 6c 1a 3e 04 00 00 00
       0.5780153 0.08121511 0.1508048 6e-45
000050 ed 6a 93 3d 13 2b 1c 3e d2 19 80 3b 4d 58 64 3f
       0.07198129 0.15250807 0.003909328 0.89197236
000060 55 88 10 3f a2 6c 21 3f ee c3 ec 3e 9c 17 d4 3d
       0.56458026 0.63056386 0.46243232 0.10356066
000070 2e 23 5a 3e 20 a2 27 3d a1 33 28 3f fc db 27 3c
       0.21302482 0.0409261 0.6570378 0.010245319
000080 12 f1 82 3e 1c cf d9 3d 5a f1 a1 3f 58 d8 11 3e
       0.25574547 0.10635206 1.265178 0.14242685
000090 28 e4 4b 3f 36 8c a9 3e f2 85 85 3d a7 f6 e0 3d
       0.79645014 0.33114785 0.06519689 0.10984545
0000a0 f9 17 a2 3e 04 00 00 00 41 e9 4f 3f 2b 7c b3 3e
       0.31658915 6e-45 0.8121529 0.3505567
0000b0 34 3d 85 3d 2b de 21 3f 9d 67 83 3f c0 19 1a 3d
       0.06505814 0.63229626 1.0265995 0.037622213
0000c0 16 92 3c 3f 35 7c f8 3e 44 6b 01 3e 04 00 00 00
       0.7366041 0.48532262 0.12638575 6e-45
0000d0 22 d5 ed 2b 6d 89 17 3e 08 ba 38 3e 84 90 2b 3e
       1.6899019e-12 0.14798518 0.18039715 0.16754347
0000e0 58 ce 23 3f c8 59 95 3e 04 00 00 00 70 24 e5 3d
       0.6398673 0.2917006 6e-45 0.111885905
0000f0 49 b8 ce 3e 50 2a c1 3e 1e 10 f0 3e 57 38 e8 3e
       0.40374973 0.37727594 0.46887296 0.45355484
000100 cf bc 11 3f ba cf 41 3d a1 1b 1d 3d 04 00 00 00
       0.56928724 0.047317244 0.038356427 6e-45
000110 9e aa 37 3e cf 6e 9d 3d 2f 6f 0b 3f 52 8c b8 3e
       0.17936179 0.07687151 0.5446653 0.36044556
000120 50 4e 7c 3e ae 98 9b 3e b3 d1 ae 3d b7 c3 1c 3e
       0.24639249 0.30389923 0.08536091 0.15309034
000130 3c e9 83 3e 38 c4 8d 3e 36 3c 8c 3f 9e 84 d2 3e
       0.2576388 0.27688766 1.0955875 0.41116804
000140 92 73 2b 3f 57 da ac 3d bd 42 41 3e 0d 5b b4 3d
       0.6697322 0.084400825 0.18873115 0.08806429
000150 13 1f 97 3d 6b 7c 72 3e 72 aa 0a 3d fa c1 07 3f
       0.07378974 0.23680274 0.033853956 0.5303036
000160 9b 99 00 3e d8 8a 57 3f 82 75 b3 3d 54 2b f7 3e
       0.12558596 0.84196234 0.08762647 0.48275244
000170 07 1c 0e 3f ba 8a 03 3e 2c 4f aa 3e f7 94 c6 3e
       0.55511516 0.12845889 0.33263528 0.38785526
000180 ba 4a d7 3e ab 77 52 3d 3a 51 48 3e 09 e7 cc 3e
       0.420492 0.051383656 0.19562235 0.40020016
000190 f5 7b 2b 3e 40 4a 0f 3e f1 84 9e 3e 04 00 00 00
       0.16746505 0.13993168 0.309608 6e-45
0001a0 5f 1d 0f 3c c1 71 36 3d 7c b3 15 3c a3 32 9e 3e
       0.00873503 0.044542078 0.009137031 0.30898008
0001b0 d6 3f 85 3d 5c 4e 81 3e ce b8 8c 3e 16 e7 43 3e
       0.06506316 0.25255096 0.27484745 0.19131121
0001c0 46 f1 e2 3d 5c 3c f3 3d 65 26 0f 3f 63 3f 65 3c
       0.110811755 0.11876747 0.5591796 0.013992163
0001d0 74 12 af 3d c0 63 b8 3e 01 15 0d 3e c6 6d 26 3e
       0.085484415 0.36013603 0.13777544 0.16252813
0001e0 ef b2 44 3e 9c 57 04 3e 1b c0 e1 3e 11 70 42 3d
       0.19208883 0.12924045 0.44091877 0.047470156
0001f0 1b 88 32 3d d4 a0 98 3d 31 3b 5f 3d 11 f7 0d 3d
       0.04358683 0.074525505 0.05449981 0.03465945

layers.3.running_var f4 [128]
000000 73 28 8d 3c 9d bf dd 3d f3 16 84 3e 57 e9 6d 3d
       0.017231202 0.10827563 0.2579876 0.05808386
000010 26 d3 56 3d 28 1b 68 3d 81 63 24 3e 04 00 00 00
       0.05244746 0.056666523 0.16053583 6e-45
000020 04 00 00 00 b2 6a c5 3e 0a 4f 1b 3d fd fb ac 3c
       6e-45 0.38557965 0.037917174 0.021116251
000030 b8 56 96 3c 18 6f f3 3c 04 de e9 3c de f8 b8 3d
       0.018351898 0.02971606 0.028548248 0.09031843
000040 fb 55 58 3e 22 68 c9 3c 55 70 c9 3d 04 00 00 00
       0.21126549 0.024585787 0.09835879 6e-45
000050 08 0f 82 3c 33 d7 88 3d 4c e5 08 3a 7b a8 20 3e
       0.015876308 0.06681671 0.0005222156 0.1568927
000060 78 95 04 3f 58 73 18 3f f3 f1 6d 3e 90 21 61 3d
       0.5179057 0.59551 0.23236828 0.05496365
000070 0a b9 c8 3d d2 7b 44 3c a7 1f da 3e 24 a8 66 3b
       0.098009184 0.011992412 0.42602274 0.0035195434
000080 00 02 32 3e dd 9d ac 3c 53 84 f0 3e d4 bb 9f 3d
       0.17383575 0.021071369 0.46975955 0.07799497
000090 8f c7 1c 3f ce 1f 05 3e f6 c1 09 3d 09 d2 6a 3d
       0.61242 0.13000414 0.03363224 0.05732921
0000a0 67 85 38 3e 04 00 00 00 b2 d3 ce 3e 51 58 a8 3e
       0.18019639 6e-45 0.40395886 0.3287988
0000b0 fb 2e bd 3c ed f2 de 3e 9c f1 55 3d 59 3a 0e 3c
       0.023093691 0.43544713 0.05223237 0.008680903
0000c0 12 0b 32 3f e5 f4 8f 3e a2 cc 80 3d 04 00 00 00
       0.6954814 0.28116527 0.062890306 6e-45
0000d0 93 4d a2 29 c1 81 8c 3d 6e d3 10 3e 4c da 9a 3d
       7.207702e-14 0.06860686 0.14143154 0.07561168
0000e0 27 06 a4 3e af 84 57 3e 04 00 00 00 d7 da 09 3d
       0.32035944 0.21046709 6e-45 0.033655968
0000f0 2c 28 39 3e 0f 9a 85 3e 86 72 90 3e fe 7f 75 3e
       0.1808173 0.260941 0.28212374 0.23974606
000100 19 b6 8a 3d 02 f6 75 3c af 45 8d 3c 04 00 00 00
       0.067730136 0.015012266 0.017245142 6e-45
000110 12 73 d0 3d 04 82 1b 3d 11 e5 bc 3e 41 02 34 3e
       0.10178198 0.03796579 0.36893514 0.17578985
000120 d4 31 b9 3d 07 c3 43 3e ea a9 fe 3c f2 d7 6d 3d
       0.09042707 0.19117366 0.03108688 0.05806727
000130 13 26 37 3e f5 c4 aa 3d 99 ca 69 3d d3 e1 55 3e
       0.17885618 0.08338348 0.057077978 0.20886926
000140 06 89 25 3d 2c 30 f6 3c 89 3b d3 3d 60 cc 63 3d
       0.04041388 0.030052267 0.1031409 0.05561483
000150 64 f5 c4 3c 33 79 1e 3e 14 b0 7e 3c 76 12 60 3e
       0.024042793 0.15475921 0.01554491 0.21882042
000160 97 21 43 3d 5d 34 04 3e 7d b3 07 3d 04 d0 0e 3e
       0.047639456 0.129106 0.033130158 0.13946539
000170 fd 74 c5 3e 2a c2 f6 3d 33 8b 5e 3e 30 58 6c 3e
       0.38565817 0.120487526 0.21732788 0.23080516
000180 5b c3 2a 3e 46 1f 80 3c b7 26 0b 3e 77 f2 b8 3e
       0.16676085 0.015639912 0.13588987 0.36122486
000190 d2 c9 57 3d 87 76 8a 3d b2 53 2a 3e 04 00 00 00
       0.052682705 0.067608885 0.1663349 6e-45
0001a0 41 01 4b 3c c3 c9 b3 3c a9 18 29 3b 84 e5 04 3e
       0.012390436 0.021946793 0.0025802052 0.12978178
0001b0 8d 3c 4f 3c 46 51 17 3e 97 27 4d 3e 4f 94 28 3e
       0.012648714 0.14777097 0.20034634 0.16462825
0001c0 1f d6 2f 3d fa 1c 7b 3d a4 ba 03 3f 84 b5 56 3b
       0.04292881 0.06130693 0.51456666 0.0032762
0001d0 55 d4 09 3d 12 a0 a7 3e 63 0e 33 3d 2b b5 54 3d
       0.03364976 0.3273931 0.043714892 0.051930588
0001e0 17 33 93 3d 33 b0 c9 3d b9 d8 1d 3e 40 30 af 3c
       0.07187479 0.098480605 0.15414704 0.021385312
0001f0 4c 43 55 3c b9 a8 c3 3c 66 f8 03 3d 82 10 b2 3c
       0.013016533 0.023884164 0.032219313 0.021736387

layers.4.weight f4 [64, 128]
000000 e1 56 b4 bd a8 18 9a be 5b 31 31 3e 09 68 1e be
       -0.08805633 -0.30096936 0.17303984 -0.15469374
000010 87 b6 93 3c 09 2b f8 3e b3 f3 53 3e f2 81 72 bd
       0.018031372 0.48470333 0.20698433 -0.059205957
000020 b6 09 f1 3d 73 88 75 3d 37 ef 60 be c2 2a 9f 3d
       0.1176943 0.05994458 -0.21966253 0.07771827
000030 b8 ec ab 3e a7 38 54 be 48 9c 56 3e 67 1f 23 3c
       0.3357904 -0.20724736 0.20958054 0.009956217
000040 87 8d 2d 3d 77 87 59 3e a3 83 d3 be 3e dc 8a 3c
       0.0423713 0.21243082 -0.41311368 0.016950723
000050 0e 4d 53 bd 09 a7 62 3e d5 1c fa 3e 2c c1 53 be
       -0.051587157 0.22134031 0.48850122 -0.20679158
000060 03 76 a7 bd 5e 73 8c be e8 83 b5 3c 6a 0f 7d 3e
       -0.08176806 -0.27431768 0.022157624 0.24712911
000070 ab 88 05 3e a2 2a 19 3f cd b0 c1 bd dc 14 e0 bd
       0.13040416 0.5983068 -0.0945755 -0.109414786
000080 04 73 00 3f b8 b0 34 bb ca 9c 9f be 31 19 99 be
       0.501755 -0.0027571153 -0.31174308 -0.29902032
000090 4b 3a 1c be fd 9e 3c bd 15 a6 fd be 6e b9 b9 3e
       -0.15256612 -0.04605006 -0.49540773 0.36274284
0000a0 ec 95 ea 3e 6d 77 59 3d 7c ac ea 3d 89 9f 1c bf
       0.45817506 0.05309241 0.1145868 -0.6118093
0000b0 00 94 f3 3e f0 3c 29 3f 49 c6 a4 be 6e 02 9d 3e
       0.47573853 0.6610861 -0.3218253 0.30665916
0000c0 c3 f3 9a 3e 88 d5 7c 3e 03 0a 94 be 85 bb a5 be
       0.302641 0.2469083 -0.28913888 -0.3236963
0000d0 37 35 b4 3e 0b 4b 8d be 69 cf 90 3e 21 69 cf 3c
       0.3519685 -0.27596316 0.2828324 0.025318684
0000e0 7a 5e 8d bb dd 6a 9c 3d db 3a ba 3d bd 7c 9b 3e
       -0.004314241 0.0763757 0.09093257 0.30368605
0000f0 4c f0 93 bd d1 88 b4 be d0 02 b1 3e fb 3c 66 3d
       -0.07223567 -0.35260633 0.34572458 0.0562105
000100 52 ed ba bd 4e 83 69 bd 17 ba 18 3f c7 36 82 3d
       -0.091272965 -0.057009988 0.5965895 0.06358104
000110 3f a9 b2 3d 80 6d 6d be 63 a2 5b be b5 04 71 be
       0.087236874 -0.23186302 -0.21448664 -0.23536952
000120 62 2d cf bd 66 71 7e 3d 2b 5a 21 3c 40 7e c6 be
       -0.10116078 0.062119864 0.009848158 -0.38768196
000130 0a 39 7e 3e bd 5a 8c bd c1 ff fc bd 80 bd 0a bf
       0.24826446 -0.068532445 -0.12353469 -0.54195404
000140 b2 9c 73 bd 2c 41 cf 3e 38 59 37 3c fc 75 bf be
       -0.05947561 0.4047941 0.011190705 -0.37394702
000150 91 58 01 3e 19 2c 50 3e 0f a2 fd be 88 a4 00 bf
       0.12631442 0.20329322 -0.49537703 -0.50251055
000160 03 f4 e1 3d 03 6a 2e be 18 51 96 be c4 27 a6 be
       0.1103287 -0.17032628 -0.29358745 -0.32452214
000170 56 86 ab bd d9 6b 19 3e 9c 92 55 3d dd df ad 3e
       -0.08375232 0.14982547 0.05214177 0.33959857
000180 9e 68 da be ca 12 6b be 5a 27 b9 be 14 3e 31 be
       -0.42657942 -0.22956386 -0.36162835 -0.17308837
000190 14 4a 85 3d 23 d4 a9 be 9b c7 75 3d fe 1f 50 3d
       0.0650827 -0.3316966 0.06000481 0.05081176
0001a0 ef 06 8b 3e c6 f1 ef 3d 00 66 de 3e d8 ff 1b bf
       0.27153727 0.117160365 0.43437195 -0.6093726
0001b0 1d da 63 3e e0 11 8a 3d ff c3 0a 3f 27 1b e4 3d
       0.22251172 0.06741691 0.54205316 0.111379914
0001c0 01 57 8c 3e 0d 5b 8b bd 0f 8c bb be 57 7c a4 bd
       0.2741013 -0.06804476 -0.36630294 -0.080315284
0001d0 20 ab d0 3e a7 32 80 3e 1d b0 58 3d 06 bd 68 3e
       0.40755558 0.25038645 0.05290233 0.22728357
0001e0 22 b9 c7 be 17 97 82 3e d1 26 e9 bd 6c 75 8c bd
       -0.39008433 0.25505897 -0.11384357 -0.06858334
0001f0 62 8b a8 3e c8 b0 3d 3e f9 a8 78 3d 06 ca 56 be
       0.3291884 0.18524468 0.06070802 -0.20975503
000200 b0 ed 2f be 30 6c 5e 3e 68 15 9d bd 0b 20 ec bd
       -0.17180514 0.21720958 -0.076700985 -0.11529549
000210 49 f5 cd be 21 2c 94 be a1 5f 1d bf a5 6e 85 3e
       -0.402262 -0.28939918 -0.61474043 0.26060978
000220 54 46 47 3e da 47 03 3e b0 92 9b bd 63 55 04 bf
       0.19460422 0.12820378 -0.07596338 -0.5169279
000230 47 b7 2d 3e 35 af 76 3e 02 55 15 3e 5f 25 b7 bc
       0.16964446 0.24090274 0.14583209 -0.022356687
000240 7f 57 d1 3c 8e 84 49 be d3 3a 29 be c8 ef 2e be
       0.025554417 -0.19679472 -0.16526346 -0.17083657
000250 bc 43 a1 3d df 23 09 bf ed c5 ed bd 57 1e fe bc
       0.078742474 -0.5357036 -0.11610017 -0.031020327
000260 ff 9b c9 3d 08 d7 d4 bd 60 0b d3 3c 5e 5f 66 3e
       0.09844207 -0.103925765 0.02576226 0.22497317
000270 dc 21 6d bd cd c0 bd 3e 2f 5f 92 bd c1 e7 e0 3b
       -0.05789362 0.37061158 -0.07147061 0.0068635647
000280 66 3f dd bd ff cd 24 be 20 00 38 be 4f 3b 09 bc
       -0.10803108 -0.16094206 -0.17968798 -0.008375957
000290 c0 2a 6e 3b ee ac a3 3d d7 c8 66 3d b9 66 94 3e
       0.00363414 0.07991968 0.05634388 0.2898462
0002a0 01 61 13 3e 7d bd 8e 3e 7c ae ed bd 11 e9 26 3e
       0.14392473 0.27878943 -0.11605546 0.16299845
0002b0 25 fd a2 3e 24 b9 03 3e c9 e3 b0 3d 81 85 7b bc
       0.3183376 0.12863594 0.086371966 -0.015351654
0002c0 95 54 d1 be 8b e5 15 be df 18 92 3e 3b 00 29 be
       -0.40884843 -0.14638345 0.285346 -0.16503994
0002d0 0e 1d 90 be a1 af 3a 3d a2 21 44 be 28 e0 ae bd
       -0.28147167 0.04557765 -0.19153455 -0.08538848
0002e0 e2 d9 31 3e 14 fe 0d 3e d2 96 c4 bd 95 86 2c 3e
       0.17368272 0.13866454 -0.09599079 0.16848214
0002f0 52 a1 14 be cf 0f d4 3d e6 27 c1 bd 39 33 0b 3c
       -0.14514664 0.10354578 -0.09431438 0.008496099
000300 8d ca f6 bd cd 91 05 bf 76 45 f8 3c c6 62 3f 3e
       -0.12050352 -0.521756 0.030306559 0.18690023
000310 1b a1 32 3d 5a 81 0b bf 89 fe 5f be 27 92 e6 bd
       0.043610673 -0.5449425 -0.21874441 -0.11258345
000320 d5 6d 52 bd 01 12 c4 be 82 b7 56 be d0 75 5f be
       -0.051374275 -0.38294986 -0.2096844 -0.21822286
000330 28 09 e8 3d 30 f2 00 be 92 fa c3 bd 9f df 79 bd
       0.113298714 -0.12592387 -0.09569277 -0.061004277
000340 d0 a2 c2 bd 5a d7 a7 3e 39 ad e8 3e 5f 25 b7 bd
       -0.0950371 0.32781488 0.45444658 -0.08942675
000350 48 48 ae 3b d0 6a 68 be 04 1c 34 3e b9 aa dc bc
       0.005318675 -0.22696996 0.17588812 -0.026936876
000360 80 22 93 be f0 15 e4 3c 6f eb 23 3e 2f 22 e4 bb
       -0.2873726 0.027842492 0.1600778 -0.006962083
000370 16 1b 49 bd 51 fd af be 5f 7b 53 be d4 fc cf 3e
       -0.049098097 -0.34372953 -0.20652531 0.4062258
000380 a8 d3 89 3e 1e 0c b6 bd 87 03 69 bc a0 27 c3 3e
       0.26919293 -0.0888903 -0.014222032 0.3811617
000390 c8 a4 89 3e fe 4b ac be 46 96 c8 3d 57 61 ad 3e
       0.2688353 -0.33651727 0.097942874 0.33863327
0003a0 6f a2 d3 be 39 85 fd bd 67 16 a4 be 9c 02 6d be
       -0.41334864 -0.12378926 -0.32048342 -0.23145527
0003b0 6f 19 d5 3d 94 42 8d be a9 d3 09 be ac 7d 34 3d
       0.10405242 -0.27589858 -0.13459648 0.044065163
0003c0 51 08 a7 bd 8f 00 da 3c e4 10 85 bd 94 b9 8e 3e
       -0.08155883 0.026611594 -0.06497362 0.2787596
0003d0 72 0a 0c 3c f6 25 08 3e 07 2b 1c 3e e6 d7 8e 3c
       0.008547412 0.13295731 0.15250789 0.017436933
0003e0 ff 50 24 bf 2d f4 0e 3e da 6b 44 3d 1f cc 87 3e
       -0.6418609 0.13960333 0.047954418 0.2652292
0003f0 cd 6a 21 3d 2f 70 08 3e 62 7f c4 be 12 bc c3 3d
       0.039408494 0.13324045 -0.38378435 0.09557356

layers.4.bias f4 [64]
000000 3d ed 3a 3e fc 95 83 be 9a 2e a8 3d b3 db b2 be
       0.18254562 -0.25700366 0.082120135 -0.34933242
000010 b1 63 43 bc 36 c5 e4 be 6b 0a 9f 3d f3 b2 08 bd
       -0.011925624 -0.4468171 0.07765659 -0.033373784
000020 30 d3 f0 be 74 fb d9 be 45 40 5a 3b f9 7b 9f bc
       -0.47036123 -0.42574656 0.0033302468 -0.019468294
000030 1d 94 e8 3d d9 99 18 be f5 99 80 3e 7f 12 81 3e
       0.11356375 -0.14902438 0.2511746 0.25209424
000040 13 04 8d be 65 c9 b8 be a4 49 76 be d7 b2 30 be
       -0.2754217 -0.36091152 -0.24051529 -0.17255722
000050 be 2c 2c be 60 cb f0 be 73 f8 5f 3c 0e 85 d5 3e
       -0.16813943 -0.47030163 0.013670075 0.41703075
000060 2b e5 0e bf 19 df 16 3f e5 9a 04 bf e3 20 cf 3e
       -0.5581843 0.5893417 -0.5179885 0.40454778
000070 f3 b4 ee bd 68 68 22 3d e6 11 09 be 16 70 8c 3d
       -0.11655607 0.03965035 -0.13385734 0.06857316
000080 75 dc 00 be a0 c7 51 be a6 be 22 be 99 38 3c 3c
       -0.12584098 -0.20486307 -0.15893039 0.011488103
000090 fa c6 0a 3f 8d d3 98 be 55 35 ca 3d 64 dc 97 be
       0.54209864 -0.298489 0.098734535 -0.29660332
0000a0 a6 f0 55 be 5a 15 77 be 91 95 37 be 4f 6c 7e be
       -0.20892581 -0.24129239 -0.17928149 -0.24846004
0000b0 ab a8 23 3d df 63 6d 3e c0 47 92 be 4a 5c 60 be
       0.039955776 0.23182629 -0.28570366 -0.21910205
0000c0 27 2c f7 be cb 11 80 be 8a 30 bb be 98 4d cb be
       -0.48275873 -0.25013575 -0.3656047 -0.39707637
0000d0 ba 8f cd be 95 0f ab be be ef f0 3f 72 ef e3 bd
       -0.40148717 -0.33410326 1.8823164 -0.11129655
0000e0 40 7f f8 be 34 2f ff bd 6f 45 3b be 39 f4 58 be
       -0.48534584 -0.12460175 -0.18288206 -0.21186914
0000f0 d9 d2 a6 3e 18 0a 9e be b9 a1 0f 3d 75 7d be bc
       0.3258274 -0.30867076 0.03506634 -0.023253182

layers.6.weight f4 [64]
000000 14 c7 89 3f c0 75 c3 3f a9 2f 42 3f 59 9a 55 3f
       1.0763879 1.527031 0.75853974 0.8343864
000010 d6 52 b8 3f 5e 7b d3 3f 12 4b c1 3f ca 62 d5 3f
       1.440028 1.6522024 1.5101035 1.6670773
000020 53 be cf 3e e4 16 84 3f 4b 09 bf 3f 09 8e 73 3f
       0.40574893 1.0319486 1.4924711 0.95138603
000030 73 66 bc 3f d0 5d ae 3f 3c ad c8 3f 63 55 93 3f
       1.4718765 1.3622379 1.5677867 1.1510433
000040 a7 47 e8 3f 52 a6 8c 3f 63 f6 c5 3f 38 54 83 3f
       1.8146867 1.0988257 1.5465816 1.0260077
000050 92 82 bb 3f 18 4c 9d 3f ad 31 d4 3f de 1a d1 3f
       1.4649222 1.2288847 1.657766 1.6336324
000060 4e 9e aa 3f 67 4b fb 3f c0 72 3f 3f 33 3f af 3f
       1.3329561 1.9632386 0.7478447 1.3691162
000070 d9 b6 a6 3f f3 13 e8 3f 49 88 98 3f 42 ec c8 3f
       1.3024551 1.8131088 1.1916591 1.56971
000080 e5 46 a9 3f 14 8a 9d 3f 06 93 b5 3f f1 bf 9b 3f
       1.322476 1.2307763 1.4185493 1.2167951
000090 21 3f 14 3f 84 49 3e 3f 42 f8 db 3f 9c c6 d2 3f
       0.5790883 0.74330926 1.7185137 1.6466861
0000a0 77 56 41 3f 0c 52 77 3f 12 10 8b 3f ee 98 49 3f
       0.7552256 0.9660957 1.0864279 0.7874898
0000b0 43 07 8b 3f a0 65 6e 3f 62 e0 57 3f ec d6 e3 3f
       1.0861591 0.9312382 0.84326756 1.7799964
0000c0 cf 1f 00 3f 83 f0 77 3f 1c 34 a1 3f a2 60 6b 3f
       0.50048536 0.96851367 1.2594028 0.91944325
0000d0 94 67 e6 3e 06 bf 11 3f cb 8f af 3f 72 6a bd 3f
       0.450009 0.56932104 1.3715757 1.479811
0000e0 3e ff 75 3f 5c 9e ab 3f e1 0b 5c 3f 20 de 4b 3f
       0.96092594 1.3407702 0.85955626 0.7963581
0000f0 4f 2e 86 3f 3c 26 c8 3f 75 56 8f 3f 3f d0 03 40
       1.0482882 1.5636668 1.119826 2.0595853

layers.6.bias f4 [64]
000000 00 94 c7 bd f4 4f 86 3e 94 82 73 3c 34 e8 ae bc
       -0.09745026 0.26232874 0.014862675 -0.021350957
000010 d3 db 24 bd d3 d4 c8 be f2 d9 8d be 2e 75 65 be
       -0.040248703 -0.39224872 -0.27705342 -0.22407982
000020 b5 40 85 be c1 a2 c0 be cc e8 7d 3e dc 17 02 3e
       -0.2602593 -0.3762417 0.24795836 0.12704414
000030 3f c3 c1 3d 27 9c 8f 3d f0 6f e7 bb 5a 9c af 3c
       0.09461068 0.070122056 -0.0070629045 0.021436859
000040 77 56 13 bd 1d 64 2b 3b 33 74 d2 3c 50 a6 a2 3e
       -0.03597113 0.0026152201 0.025690174 0.3176751
000050 3e bd 0a bd f4 73 23 bb 88 fa c6 bd 2b a7 3b bd
       -0.03387188 -0.002494094 -0.09715754 -0.04581372
000060 ad ce bb 3c a3 d8 9f be 5e 81 aa bd e3 31 c5 3d
       0.0229257 -0.31219968 -0.08325456 0.09628656
000070 fd b5 2c be 79 b3 da 3c 99 d8 3d 3e b3 ae 15 3e
       -0.16866298 0.026696907 0.18539657 0.14617424
000080 0f c8 e8 3b 21 4f a5 3e a3 ec 0f bd 76 9d e7 3d
       0.007103927 0.32286933 -0.035137784 0.1130933
000090 f6 8e 9a 3d d9 50 bf bd 58 ff 85 3d 95 8a 63 3d
       0.07546799 -0.09341592 0.065428436 0.055552084
0000a0 c6 9a 1d bd a6 56 8b 3d 41 e8 4b bc 3c 3f 33 be
       -0.03847768 0.06803636 -0.01244551 -0.17504591
0000b0 dd 29 8f be 77 56 d4 3c 1a c6 fc bd 93 90 33 be
       -0.27961627 0.025920136 -0.123424724 -0.1753562
0000c0 cb 63 34 bc 10 bb 1e bd 84 4d 10 3c 6d 4d 8e 3d
       -0.011010121 -0.038752615 0.008807544 0.069483615
0000d0 ce 6f b4 bb 48 21 b9 bd a9 92 97 bd e8 01 22 3d
       -0.005506492 -0.09039551 -0.0740102 0.0395526
0000e0 9b 90 3d 3c 84 9e ed 3d 0c 3f ab 3c 98 7e b4 be
       0.011570121 0.116025 0.020904087 -0.35252833
0000f0 d1 c2 91 3d ef 5b ae be f4 e7 07 be 31 fb e4 3c
       0.071172364 -0.34054515 -0.13272077 0.027951809

layers.6.running_mean f4 [64]
000000 ca d5 01 40 04 00 00 00 bd 04 9f 3f 04 00 00 00
       2.0286736 6e-45 1.2423321 6e-45
000010 2d be 34 3f 04 00 00 00 3e 37 0f 40 f3 e9 7e 3f
       0.70602685 6e-45 2.2377467 0.9957573
000020 04 00 00 00 04 00 00 00 37 19 93 3f d4 85 c6 3f
       6e-45 6e-45 1.149207 1.5509591
000030 89 9c 57 40 bd 3c e7 3f 03 73 63 40 bc 86 7a 3f
       3.3689291 1.8065411 3.5538948 0.9786184
000040 04 00 00 00 04 00 00 00 04 00 00 00 5c 71 1f 3f
       6e-45 6e-45 6e-45 0.6228235
000050 04 00 00 00 04 00 00 00 de f1 8f 3f b3 1b 77 40
       6e-45 6e-45 1.1245687 3.8610656
000060 a1 22 8b 3d 3f 27 93 40 04 00 00 00 d1 87 2b 40
       0.06793714 4.598541 6e-45 2.6801646
000070 7d 04 61 3f 9c ae 67 3e bf 0c d1 3e 72 50 18 40
       0.87897474 0.22625202 0.40830037 2.37991
000080 58 ca f3 3e 31 49 3d 3f 04 00 00 00 99 9f f3 3c
       0.47615314 0.73939806 6e-45 0.029739188
000090 c3 d2 82 40 04 00 00 00 47 b0 09 40 04 00 00 00
       4.0882277 6e-45 2.151384 6e-45
0000a0 d6 a7 d0 3e 12 86 bc 3c 04 00 00 00 c8 a2 86 3c
       0.4075305 0.023013148 6e-45 0.016435042
0000b0 5e e7 b2 3f 9f 88 20 40 04 00 00 00 04 00 00 00
       1.3976858 2.5083387 6e-45 6e-45
0000c0 04 00 00 00 9d 42 21 3d 04 00 00 00 04 00 00 00
       6e-45 0.039370168 6e-45 6e-45
0000d0 04 00 00 00 04 00 00 00 01 f7 e3 40 2c b0 35 3e
       6e-45 6e-45 7.123902 0.17742985
0000e0 04 00 00 00 04 00 00 00 ce 76 09 3f 04 00 00 00
       6e-45 6e-45 0.53696907 6e-45
0000f0 0c 08 2d 40 fd 0b 0e 3e f5 30 38 3e 6b ac f7 3d
       2.7036161 0.1387176 0.17987426 0.12093433

layers.6.running_var f4 [64]
000000 ea 84 3a 40 04 00 00 00 13 f0 e6 3f 04 00 00 00
       2.9143624 6e-45 1.8042015 6e-45
000010 94 b9 bd 3f 04 00 00 00 5e c8 49 40 de 2a ef 3f
       1.4822259 6e-45 3.1528544 1.8684957
000020 04 00 00 00 04 00 00 00 9a 2e c0 3f 2c 46 4e 40
       6e-45 6e-45 1.5014222 3.223033
000030 2e 75 7c 40 d8 72 a0 40 46 a6 d1 40 e5 e1 c3 3f
       3.944652 5.014019 6.551547 1.5303313
000040 04 00 00 00 04 00 00 00 04 00 00 00 07 79 a0 3f
       6e-45 6e-45 6e-45 1.2536935
000050 04 00 00 00 04 00 00 00 bd ab 10 40 c7 c5 89 40
       6e-45 6e-45 2.260482 4.3053927
000060 c2 d8 1b 3e 28 5b c7 40 04 00 00 00 b4 23 56 40
       0.15219405 6.2298775 6e-45 3.3459291
000070 a0 14 d9 3f 64 7b 4a 3e 37 28 8b 3f 91 47 7c 40
       1.6959419 0.19773632 1.0871648 3.941868
000080 46 93 a7 3f 02 b8 d5 3f 04 00 00 00 f2 9a 98 3c
       1.3091819 1.669678 6e-45 0.018628571
000090 4c dc cc 40 04 00 00 00 6c 69 df 40 04 00 00 00
       6.4018917 6e-45 6.981619 6e-45
0000a0 24 09 32 3f 66 a7 11 3d 04 00 00 00 48 28 9e 3c
       0.695452 0.035560034 6e-45 0.019306317
0000b0 12 8a 1a 40 1a 0e 8d 40 04 00 00 00 04 00 00 00
       2.4146771 4.4079714 6e-45 6e-45
0000c0 04 00 00 00 e1 51 51 3e 04 00 00 00 04 00 00 00
       6e-45 0.2044139 6e-45 6e-45
0000d0 04 00 00 00 04 00 00 00 85 f1 74 40 bb ea a1 3e
       6e-45 6e-45 3.8272412 0.31624398
0000e0 04 00 00 00 04 00 00 00 1f d2 f9 3f 04 00 00 00
       6e-45 6e-45 1.9517249 6e-45
0000f0 54 11 9d 40 b7 b5 dc 3e 01 99 9e 3e 87 53 d1 3d
       4.9083652 0.43107387 0.30976108 0.1022101

olin.weight f4 [4, 64]
000000 29 a5 61 3f de 07 90 bc e5 b9 9a 3e bd a5 9b 3d
       0.8814264 -0.017581876 0.3021995 0.075999714
000010 2c 16 1f 3e 9d 47 b3 be 3d 89 0b be 58 f8 00 bf
       0.15535802 -0.35015574 -0.13626571 -0.5037894
000020 a2 3c f9 3e d8 1d 93 be 5d c7 3c 3f f6 62 95 be
       0.48679072 -0.28733706 0.73741704 -0.29177064
000030 7c 59 ee 3e 05 d5 ea 3e 57 8a 71 3e 98 f5 c1 be
       0.46552646 0.45865646 0.23587929 -0.37882686
000040 a6 a4 8d 3f bf 5a b7 3e 50 59 31 be 19 df a5 bf
       1.1065872 0.3581142 -0.17319226 -1.2958709
000050 6e 23 0e bf 6c f5 73 3b 30 02 b4 bd 91 bf 88 be
       -0.5552281 0.003722514 -0.0878948 -0.26708654
000060 21 c1 0a 3f 50 f6 28 bf f5 c5 bf be 9e b4 bb 3e
       0.5420094 -0.66000843 -0.37455717 0.36661237
000070 ed 02 9a be f3 19 47 3f ba ec 87 3e fa 45 b7 3d
       -0.30080357 0.7777397 0.26547796 0.08948894
000080 76 6b 14 3f 21 9b 35 bf d8 97 10 bf a9 63 a0 3d
       0.5797647 -0.7093983 -0.56481695 0.07831509
000090 39 cf 60 3d f5 6b 61 be 41 47 28 bf 28 dc c5 3d
       0.054885123 -0.22013839 -0.65733725 0.09661132
0000a0 70 71 0b bc 9c b3 c3 bd c2 88 76 3e a0 08 40 bf
       -0.008510932 -0.09555742 0.24075606 -0.7501316
0000b0 33 ef 03 3e a3 49 59 3d bd fd 7c 3e 54 2f 59 3f
       0.12884216 0.05304874 0.24706168 0.8483784
0000c0 78 eb 94 bd a6 fa e2 3d ff 9b 44 3e 16 79 a7 3d
       -0.072714746 0.11082964 0.19200133 0.08177392
0000d0 df 0e 97 3d b4 e3 a6 3d cd 61 2a be eb 07 a4 3e
       0.07375883 0.081489 -0.1663887 0.3203729
0000e0 fe a8 03 3e d1 05 4f bf 84 7d 3e 3f 99 b3 b0 bb
       0.12857434 -0.8086825 0.7441027 -0.0053925035
0000f0 fc 6f 04 bd 00 71 45 bf e9 e7 b4 be fe e6 75 bc
       -0.03233336 -0.7712555 -0.35333183 -0.015008686
000100 63 b7 54 3e 5f d1 5a 3d 59 ec da 3c d4 f5 f9 be
       0.20773081 0.053422328 0.026724027 -0.48820364
000110 4c 5e 03 3f 2a 06 17 3f 5f d1 46 3f 40 62 28 bf
       0.5131576 0.5899378 0.77663225 -0.6577492
000120 c8 01 e0 3c 55 a0 02 bf f2 46 aa 3e af 69 65 be
       0.0273446 -0.510259 0.33257252 -0.22403596
000130 d3 9b 9c bf 96 b4 6f 3f 6a 61 39 3e 7a 09 10 3f
       -1.2235054 0.9363493 0.18103567 0.5626446
000140 83 e3 10 3e 4b 56 14 3f bf 8d bb be 75 2d ac 3d
       0.14149289 0.5794417 -0.3663158 0.08407108
000150 68 9c 95 bf cf 5b d1 be 26 9b 77 3f 54 70 7b bf
       -1.1688356 -0.40890357 0.9672111 -0.98218274
000160 91 58 8d 3d 9d 1c d7 bc 99 d3 19 bd 95 28 c2 bd
       0.06901658 -0.026258761 -0.03755531 -0.09480397
000170 32 e9 1b bd 48 c1 99 3d 84 99 bb be 9e 7f 48 3f
       -0.03806419 0.075075686 -0.3664056 0.7831973
000180 00 ff 0e be 6c 64 14 be 04 35 27 bf 59 d3 28 bf
       -0.13964462 -0.14491433 -0.6531527 -0.6594749
000190 24 17 2a 3f 88 e6 47 3e e9 36 3e 3f 39 c2 87 3f
       0.6644156 0.19521534 0.74302536 1.0606147
0001a0 57 dd b4 be 0b 4a 63 3d 78 45 00 bf 72 ee 28 be
       -0.3532512 0.055490535 -0.50106 -0.1649721
0001b0 5f f1 20 bf 29 85 1a 3e 87 45 03 be 5f 30 25 be
       -0.62868303 0.15089859 -0.12819491 -0.16131733
0001c0 74 5e e2 be 22 04 1c be 81 77 3f 3f e8 a7 2e 3e
       -0.44212687 -0.15235952 0.74791723 0.17056239
0001d0 6c 9b d2 bd e1 aa 49 3e bc ad 63 3f a9 a7 24 3f
       -0.102835506 0.19694091 0.8893697 0.6431833
0001e0 07 59 b4 3e c8 82 45 be 62 69 19 3b ec ff a1 bd
       0.35224172 -0.1928817 0.002340876 -0.07910141
0001f0 74 8e 3d bf 5d 6a 36 be 7a e1 99 3d 33 d6 13 bf
       -0.7404549 -0.17814012 0.07513709 -0.5774872
000200 b5 e4 d1 3d 3d 0d 2c 3f 1e 1d a9 3e 16 0d a7 3e
       0.102487005 0.672077 0.33030027 0.3262717
000210 39 19 c9 3e 8c 31 e1 3e 57 4f 58 3d a2 f6 86 be
       0.39277056 0.43983114 0.05281004 -0.2636004
000220 7b f4 06 3f c5 6a e6 3c a7 74 ee 3d a9 60 9a 3e
       0.527168 0.028127084 0.116433434 0.3015187
000230 66 12 cd 3d b2 17 33 be 28 81 bf be 9f 27 af 3e
       0.10013275 -0.17489508 -0.37403226 0.34209916
000240 31 63 27 3e 58 71 1c 3e 9c 44 11 bf 8f 59 03 3e
       0.16346432 0.15277612 -0.56745315 0.12827133
000250 2e 94 14 bf 65 e3 22 3e 5a 51 71 be 91 1e 56 3d
       -0.58038604 0.15907057 -0.2356619 0.052275244
000260 bf df 42 3f ac 5b 6f bd b0 5d 40 bf f1 eb bb 3e
       0.7612266 -0.058437034 -0.75142956 0.36703447
000270 d7 1f eb bd fe 1d 07 3f c4 ae 2b 3e 7e 40 83 3c
       -0.11480682 0.5278014 0.16765887 0.016021963
000280 6e cf 0b be f9 4b 9e bd a5 41 39 be 04 c4 cb 3d
       -0.13653347 -0.077293344 -0.18091448 0.099494964
000290 c1 29 24 3f cb ae 2b 3c 48 8f 76 bd df 20 a7 bd
       0.6412621 0.010478686 -0.060195237 -0.081605665
0002a0 52 66 39 bf 64 6d 83 bc aa e3 94 bd ec 2b 1a be
       -0.72421753 -0.016043372 -0.07269986 -0.15055817
0002b0 52 92 15 bf aa ed 92 be 0d ec 33 3f a3 9d de 3e
       -0.5842639 -0.28696948 0.7028206 0.43479642
0002c0 a5 52 83 bd 42 a9 db be 6c 29 0a 3e a9 5a 3c 3f
       -0.064122476 -0.4290257 0.13492364 0.73575836
0002d0 ac 9c 57 3c b4 b3 cc be 04 41 d8 bb 5b bd c7 3e
       0.013159912 -0.39980853 -0.0065995473 0.39011654
0002e0 1c e2 87 bd 30 a9 ad 3d 4b 40 0f 3f a8 59 91 ba
       -0.06634924 0.084795356 0.5595748 -0.0011089342
0002f0 53 73 e1 3e a2 e6 33 3e 95 c0 6c be 10 e4 ee ba
       0.44033298 0.17568448 -0.23120339 -0.0018225927
000300 5b bf bc 3e 11 b8 26 3d 2f a2 73 bf 94 fe ec be
       0.36864743 0.040702883 -0.9516935 -0.46287978
000310 e9 50 39 be ed b7 91 be 6a 72 95 be 7a 9d 93 3e
       -0.18097271 -0.28460637 -0.29188854 0.28831083
000320 12 8a 1e bd 62 79 e1 be e6 94 6b be 53 fe 64 3f
       -0.038705893 -0.4403792 -0.23006019 0.8945057
000330 c6 5f 49 3e 5f 8e 2a bf 13 09 22 bf b5 89 2d bd
       0.19665441 -0.6662349 -0.63295096 -0.042367656
000340 d9 47 01 3f 9a 64 10 3f 10 0c fd 3e d4 cc 58 be
       0.50500256 0.56403506 0.49423265 -0.21171886
000350 fd 04 23 3e cc e2 b5 be aa 34 c9 3d 8f 97 8e 3e
       0.15919872 -0.35524595 0.09824498 0.27850005
000360 6a 22 68 3f 4b 49 80 3e a9 b2 00 3d fb 14 d8 bd
       0.9067751 0.25055918 0.031420384 -0.10550877
000370 53 d4 37 3f 42 8e 0c be 46 9f ac bd 15 76 97 3e
       0.71808356 -0.13726142 -0.084288165 0.29582277
000380 a3 1b cc bd 9b ea be 3e 5e 47 ff 3d e3 39 8e bf
       -0.09966209 0.37288365 0.12464784 -1.1111416
000390 e0 cf 75 3e 47 ed 9f 3e d9 ac 86 be 77 13 96 bd
       0.2400508 0.31235716 -0.26303747 -0.073279314
0003a0 5f 39 cc bd b3 68 2c 3f 6d 89 0f bf 7f 92 eb bd
       -0.0997188 0.6734726 -0.5606907 -0.11502551
0003b0 dc eb bf 3e e7 33 b0 bf 75 14 39 bf af f6 ce 3e
       0.37484634 -1.3765839 -0.7229684 0.4042258
0003c0 77 41 e3 be fb 06 dc bd 87 f6 b5 3e f1 1b bf 3e
       -0.44385883 -0.10743519 0.35539648 0.37326005
0003d0 5a 4a 95 be 60 6f b9 3e 95 4a ab 3e 3e d8 e4 3d
       -0.29158288 0.36217785 0.3345534 0.111740574
0003e0 a6 26 82 3d 58 3c 61 bd 69 bc b8 be d3 ce 75 3f
       0.06355028 -0.05498919 -0.36081246 0.96018714
0003f0 81 67 52 3d fb fa 8b 3e 9b 80 89 bd 74 c6 97 bf
       0.05136824 0.2733992 -0.06713983 -1.1857438

olin.bias f4 [4]
000000 49 dd 61 be 99 cc da 3c 00 0d cd bc b1 1b 6a 3e
       -0.2205707 0.026708888 -0.025030613 0.22862126
