c_current.pth (torch_old, 84776 bytes, 11 tensors)

state_fs.0.weight f4 [33]
0.41271082 0.15014343 0.4236669 0.028201181 -0.00090441614 0.07941512 -0.0008247706 0.030128423
0.034824032 0.029952168 0.038351458 0.05685688 0.06324859 0.7087006 0.3014641 0.75310355
0.07880595 0.0592757 0.05657715 0.09334667 0.036740806 0.05290031 0.030341737 0.29184285
0.08628809 0.27071598 0.9054108 0.5869869 0.6701471 0.3409065 0.13937682 0.22964
0.7269905
00000000: d54e d33e 33bf 193e deea d83e 2a06 e73c
00000010: 5716 6dba 65a4 a23d 6b35 58ba e2cf f63c
00000020: a5a3 0e3d 405e f53c 6b16 1d3d c3e2 683d
00000030: 7a88 813d 676d 353f 8159 9a3e 65cb 403f
00000040: 0465 a13d 14cb 723d 71bd 673d 8a2c bf3d
00000050: 877d 163d ffad 583d 3c8f f83c 6d6c 953e
00000060: cfb7 b03d 499b 8a3e 01c9 673f c644 163f
00000070: c38e 2b3f 4c8b ae3e ccb8 0e3e c026 6b3e
00000080: 0d1c 3a3f

state_fs.0.bias f4 [33]
0.060754128 -0.18031293 -0.003871373 0.004610095 -0.0013026027 -0.024419893 0.0017574694 -0.0014189953
0.007459755 -0.0009741001 0.00029101013 -0.04099366 0.0026330468 -0.074091084 0.16811566 0.046212047
0.0045147403 0.02771872 -0.000395303 -0.061506048 0.0044150925 0.0010590266 0.021019142 0.023155088
0.04194536 -0.06175926 -0.03133727 0.0017131004 0.07834517 -0.0022988692 -0.006059073 0.028129762
0.00028733135
00000000: 52d9 783d f4a3 38be dcb6 7dbb 4810 973b
00000010: 18bc aaba 3a0c c8bc e35a e63a 95fd b9ba
00000020: f670 f43b c05a 7fba b892 9839 f8e8 27bd
00000030: 328f 2c3b 11bd 97bd 8326 2c3e d848 3d3d
00000040: 63f0 933b 5e12 e33c ac40 cfb9 c4ed 7bbd
00000050: 7bac 903b 09cf 8a3a 5630 ac3c bdaf bd3c
00000060: e6ce 2b3d 47f7 7cbd 825b 00bd 1c8a e03a
00000070: 6f73 a03d a0a8 16bb 308b c6bb 6370 e63c
00000080: f6a4 9639

state_fs.0.running_mean f4 [33]
-0.10618827 -2.81468 0.0031223362 0.92084146 -0.013777994 0.0018427208 0.0035404153 -0.0019726693
0.0036530772 -0.007769009 -0.015638812 0.006984189 0.0044521973 0.18166038 -2.98103 0.124164455
0.024526827 -0.029682852 0.040832736 -0.18814093 0.1009375 0.032015596 -9.138713e-06 -0.0022762073
0.1309341 -0.012911056 -0.058774218 -0.99999976 -0.07980597 0.0 0.99999976 0.0
-0.017244063
00000000: 3c79 d9bd b823 34c0 1ca0 4c3b 44bc 6b3f
00000010: 18bd 61bc 7387 f13a 5006 683b e647 01bb
00000020: 7768 6f3b 2c93 febb f71c 80bc a0db e43b
00000030: bde3 913b 2e05 3a3e 32c9 3ec0 ef49 fe3d
00000040: 7cec c83c 7429 f3bc 3a40 273d 04a8 40be
00000050: 52b8 ce3d c922 033d 7952 19b7 6c2c 15bb
00000060: 9713 063e e588 53bc 3cbd 70bd fcff 7fbf
00000070: 5071 a3bd 0000 0000 fcff 7f3f 0000 0000
00000080: 6c43 8dbc

state_fs.0.running_var f4 [33]
3.6903136 0.16609286 4.2531056 0.0008427467 0.060756028 0.003751041 0.086385965 0.19138299
0.046467 0.10613789 2.0678518 0.4523368 2.048733 22.355125 0.84772485 23.927605
0.094776355 0.36008716 0.07819592 0.42834726 2.5684116 1.5808829 0.404392 9.112977
3.7648773 8.619764 31.76496 6e-45 32.187702 6e-45 6e-45 6e-45
0.32727975
00000000: 192e 6c40 3f14 2a3e 7119 8840 c6eb 5c3a
00000010: 50db 783d 06d4 753b 20eb b03d e7f9 433e
00000020: 2e54 3e3d d25e d93d af57 0440 b098 e73e
00000030: 711e 0340 4cd7 b241 7f04 593f bc6b bf41
00000040: 1b1a c23d 585d b83e 2f25 a03d 5550 db3e
00000050: db60 2440 5f5a ca3f 780c cf3e c1ce 1141
00000060: c0f3 7040 8eea 0941 a31e fe41 0400 0000
00000070: 35c0 0042 0400 0000 0400 0000 0400 0000
00000080: 3691 a73e

state_fs.1.weight f4 [114, 33]
-0.11059587 0.16378807 -0.03895394 0.20846012 0.108533256 -0.31866303 -0.020339245 -0.23134288
-0.1350642 -0.28725323 -0.06346535 0.11601742 0.07606511 0.12068527 -0.070904344 0.4566264
0.009880433 0.063440084 0.26748484 0.037600324 0.09494425 0.15265644 -0.05415639 -0.10148902
0.12462117 0.38725233 0.26122454 0.032658555 -0.18405437 -0.008249271 0.002567536 -0.3591305
0.4813293 -0.0064105247 0.15846369 0.17721534 0.14956374 -0.033339508 -0.003499513 -0.0673093
-0.14088796 0.0501944 0.0026776616 -0.071371384 -0.11489914 0.2937002 0.1664277 -0.07218603
-0.051063236 -0.1456597 0.17768082 0.40226108 0.1024637 -0.04919412 0.08648238 -0.16891286
-0.087589175 0.010447539 0.3691822 -0.26915056 0.00805222 0.2867831 -0.00064576714 0.0026930943
-0.41400677 -0.46998215 -0.0032088326 0.07784711 0.10508914 0.26353338 -0.019447273 -0.34882268
0.016181488 -0.100782916 -0.030952146 0.007268939 -0.07648981 -0.025119899 0.011122391 0.05354747
-0.0811068 -0.27328137 -0.10386273 0.033079028 0.11116721 0.13159958 -0.014413296 -0.023538666
-0.08134017 -0.118915886 0.032497417 0.15003727 -0.23570988 0.0014312697 0.68525815 -0.006056965
-0.016105678 -0.2158781 0.55600876 0.10932629 0.14905897 0.08867376 0.024575742 -0.037614416
-0.26129487 0.05500238 0.023384959 -0.013175475 0.0752138 0.11241022 -0.040274344 0.11234549
-0.084045246 -0.089774735 -0.18726742 -0.29231507 -0.14268711 -0.38495016 -0.2061095 -0.1655497
0.094493434 -0.1785387 0.06323853 -0.04016646 0.025729006 0.36381277 0.009544712 0.01397775
0.0082871355 -0.0087485025 0.1023857 -0.6424456 0.108985 -0.1331096 -0.16051961 0.033005483
0.0037465924 0.4418217 0.054238673 0.05703813 -0.38958767 0.022385184 -0.022172293 0.17888941
-0.056758013 -0.045291897 0.22012031 0.23962377 -0.20019668 -0.10996219 -0.20423767 0.45162928
-0.06458896 0.06524079 0.00967825 -0.26157406 0.22510907 0.08424828 -0.22679988 -0.007895292
-0.07229045 -0.010296635 0.00849467 -0.1565126 -0.28687066 -0.014111588 0.2187228 -0.69978154
0.15715921 -0.0702172 -0.04057415 0.075490564 0.16521071 0.2268553 0.18823253 0.08379056
0.2421213 -0.2987678 -0.05468503 0.019138796 0.24303049 0.006405469 -0.22659805 -0.095989875
-0.2559099 -0.45223 0.023271017 -0.121790856 -0.042944044 -0.07645429 0.24620226 -0.0069024037
0.01855528 0.20438427 -0.002411501 -0.021066075 -0.28293756 -0.104265235 -0.1770123 0.16707334
-0.15668887 0.29839733 0.08583346 -0.028419286 -0.016350335 -0.004041841 0.08147275 0.033690818
-0.28657708 -0.12577653 -0.34535167 0.031181486 -0.14721046 0.091122046 0.2019205 0.34109172
-0.29228616 0.3446769 0.3774039 -0.057506338 0.008145696 -0.080620654 -0.16185915 0.27799785
-0.04435442 -0.017401284 0.5130888 0.021719402 0.006393748 -0.2965968 -0.21993619 0.19993602
0.415531 0.014555261 0.09927443 -0.0044462276 -0.19282885 -0.09142735 0.031194229 0.27814594
0.11673019 0.2481369 0.35801643 -0.22273383 -0.016794771 -0.22568046 0.18904826 -0.02462559
-0.44133225 -0.32895052 0.7727618 0.38293776 0.58242285 0.22224008 -0.061016645 0.5056373
00000000: 1680 e2bd 0fb8 273e 2b8e 1fbd 9276 553e
00000010: af46 de3d cd27 a3be 7d9e a6bc 26e5 6cbe
00000020: 454e 0abe db12 93be 1ffa 81bd 8b9a ed3d
00000030: 06c8 9b3d d729 f73d 4c36 91bd efca e93e
00000040: 8ae1 213c e0ec 813d c6f3 883e cc02 1a3d
00000050: 2272 c23d f851 1c3e 17d3 5dbd 7ad9 cfbd
00000060: 6239 ff3d f045 c63e 39bf 853e fac4 053d
00000070: c078 3cbe f327 07bc 1b44 283b f4df b7be
00000080: cb70 f63e 610f d2bb 4e44 223e f077 353e
00000090: 3d27 193e 028f 08bd 1658 65bb 75d9 89bd
000000a0: ef44 10be a598 4d3d b57b 2f3b 292b 92bd
000000b0: 3e50 ebbd df5f 963e 066c 2a3e 45d6 93bd
000000c0: af27 51bd d127 15be f6f1 353e 2af5 cd3e
000000d0: 7dd8 d13d c67f 49bd ad1d b13d 7ef7 2cbe
000000e0: f461 b3bd 282c 2b3c 7305 bd3e 1ace 89be
000000f0: 75ed 033c 3cd5 923e b348 29ba a07e 303b
00000100: b2f8 d3be 80a1 f0be 474b 52bb 4e6e 9f3d
00000110: fa38 d73d d9ed 863e e34f 9fbc e398 b2be
00000120: 0a8f 843c 4667 cebd 5b8f fdbc 4830 ee3b
00000130: b1a6 9cbd 3fc8 cdbc b03a 363c 9854 5b3d
00000140: 521b a6bd 89eb 8bbe fcb5 d4bd e07d 073d
00000150: a2ab e33d 0ac2 063e bf25 6cbc 29d4 c0bc
00000160: ad95 a6bd 2c8a f3bd 031c 053d 5fa3 193e
00000170: ee5d 71be 7199 bb3a 146d 2f3f 8179 c6bb
00000180: 0ef0 83bc 260f 5dbe 9756 0e3f 76e6 df3d
00000190: eaa2 183e 979a b53d 1153 c93c 9311 1abd
000001a0: 71c8 85be 2d4a 613d d091 bf3c f3dd 57bc
000001b0: b109 9a3d 5437 e63d b6f6 24bd 6415 e63d
000001c0: ea1f acbd d1db b7bd 08c3 3fbe 52aa 95be
000001d0: 921c 12be 3018 c5be 5e0e 53be dc85 29be
000001e0: c685 c13d d9d2 36be 3483 813d 9685 24bd
000001f0: a3c5 d23c ab45 ba3e 6c61 1c3c ef02 653c
00000200: c4c6 073c e155 0fbc 98af d13d 5177 24bf
00000210: 8733 df3d e24d 08be 415f 24be c230 073d
00000220: 6489 753b 7436 e23e 5f29 5e3d d0a0 693d
00000230: 0978 c7be 2261 b73c aba2 b5bc c92e 373e
00000240: 177b 68bd ff83 39bd 3867 613e ef5f 753e
00000250: 5c00 4dbe db33 e1bd ae23 51be f43b e73e
00000260: 3747 84bd f79c 853d 8691 1e3c 09ed 85be
00000270: fe82 663e 5d8a ac3d 3a3e 68be 415b 01bc
00000280: 040d 94bd 38b3 28bc 3a2d 0b3c d744 20be
00000290: b6e0 92be 4a34 67bc dff8 5f3e e224 33bf
000002a0: 58ee 203e 09ce 8fbd 1431 26bd cc9a 9a3d
000002b0: ff2c 293e c14c 683e 07c0 403e 639a ab3d
000002c0: a5ee 773e 18f8 98be 69fd 5fbd f7c8 9c3c
000002d0: fcdc 783e f8e4 d13b 5209 68be 5796 c4bd
000002e0: 9f06 83be b18a e7be dca2 be3c 7c6d f9bd
000002f0: 18e6 2fbd 1194 9cbd 721c 7c3e 8f2d e2bb
00000300: 3e01 983c 1c4a 513e 460a 1ebb c392 acbc
00000310: 31dd 90be 0389 d5bd b642 35be 4615 2b3e
00000320: 0c73 20be 89c7 983e 74c9 af3d 90cf e8bc
00000330: 23f1 85bc 6b71 84bb 2fdb a63d 62ff 093d
00000340: 3bba 92be 90cb 00be efd1 b0be 5170 ff3c
00000350: 57be 16be 329e ba3d 3fc4 4e3e 93a3 ae3e
00000360: 88a6 95be 7e79 b03e 153b c13e c48b 6bbd
00000370: 8675 053c 711c a5bd 68be 25be bc55 8e3e
00000380: fbac 35bd 238d 8ebc ca59 033f e3ec b13c
00000390: a582 d13b 89db 97be f436 61be 07bc 4c3e
000003a0: 7bc0 d43e 3079 6e3c 6450 cb3d a9b1 91bb
000003b0: ed74 45be 433e bbbd 0a8b ff3c 2569 8e3e
000003c0: 3d10 ef3d 9917 7e3e ee4d b73e 5614 64be
000003d0: 3095 89bc c718 67be de95 413e 9bbb c9bc
000003e0: 4df6 e1be 346c a8be b8d3 453f 6b10 c43e
000003f0: aa19 153f e792 633e 97ec 79bd 7271 013f

state_fs.1.bias f4 [114]
-0.42705163 -0.31857017 -0.06309748 -0.12478963 -0.27477682 0.040144417 -0.18051061 -0.22994879
-0.21638824 -0.10624017 -0.19022192 -0.05137483 -0.28582028 -0.35520595 -0.05262011 -0.12999941
-0.2923302 -0.10472186 -0.34045166 -0.047759958 -0.2528371 0.046350673 -0.16538298 -0.16399468
-0.26547167 -0.034124676 -0.06041308 -0.24490063 -0.18298669 -0.264543 -0.093557745 -0.20898929
-0.009103661 0.009327988 -0.5436105 -0.3221056 -0.055121027 -0.15116829 -0.45397654 0.004366259
-0.1457606 0.008301296 -0.08001377 -0.20072177 -0.18325423 -0.07929055 -0.1661755 -0.38182926
-0.06542425 -0.15411924 -0.1819026 -0.31473657 -0.36514705 0.058032695 -0.20562324 -0.09720977
-0.19921446 -0.33519804 -0.26143822 -0.26100856 -0.10624821 -0.31943893 -0.46199164 -0.1767582
-0.33109748 -0.23154986 -0.062083043 -0.27903008 -0.33913937 -0.43361086 -0.22427934 -0.152258
-0.29268107 -0.053773083 -0.0678315 -0.21243909 -0.13452332 -0.25254148 -0.47962242 -0.13583367
-0.3620339 -0.36114994 -0.37067157 -0.38214868 -0.19818066 0.028807513 -0.33337694 -0.2606083
0.15751874 -0.0033338363 -0.228638 -0.34665135 -0.3178633 -0.51036036 -0.15423164 -0.35475567
-0.14852282 -0.12619895 -0.17367603 -0.30752715 -0.18855202 -0.18089068 -0.025999952 -0.15969802
-0.21157667 -0.26215428 -0.09338884 -0.331973 -0.23587313 -0.09623286 -0.050310854 0.0060763415
-0.31617808 -0.23860052
00000000: 83a6 dabe a11b a3be 4039 81bd b591 ffbd
00000010: 8caf 8cbe 796e 243d c6d7 38be b277 6bbe
00000020: e194 5dbe 7294 d9bd 89c9 42be 6a6e 52bd
00000030: 0957 92be 8edd b5be 2f88 57bd 911e 05be
00000040: 4eac 95be 6a78 d6bd ae4f aebe f29f 43bd
00000050: dd73 81be 34da 3d3d 285a 29be 39ee 27be
00000060: e7eb 87be 51c6 0bbd b573 77bd 3bc7 7abe
00000070: dd60 3bbe 2e72 87be 349b bfbd 4a01 56be
00000080: 8627 15bc 6bd4 183c 0f2a 0bbf 06eb a4be
00000090: 96c6 61bd dccb 1abe 9d6f e8be d612 8f3b
000000a0: 4442 15be 2902 083c 42de a3bd 028a 4dbe
000000b0: ffa6 3bbe 1563 a2bd e929 2abe 207f c3be
000000c0: 26fd 85bd 6fd1 1dbe ad44 3abe 2725 a1be
000000d0: 8ef4 babe b1b3 6d3d e68e 52be ea15 c7bd
000000e0: e0fe 4bbe 149f abbe 3bdb 85be eaa2 85be
000000f0: a998 d9bd 808d a3be 2b8a ecbe 1a00 35be
00000100: 9c85 a9be 681b 6dbe ca4a 7ebd 08dd 8ebe
00000110: ada3 adbe 3e02 debe 7ca9 65be 85e9 1bbe
00000120: 4bda 95be 2a41 5cbd 3eeb 8abd a289 59be
00000130: 7bc0 09be 1e4d 81be 1291 f5be fb17 0bbe
00000140: 825c b9be a5e8 b8be aac8 bdbe fea8 c3be
00000150: dfef 4abe bcfd eb3c 62b0 aabe 736e 85be
00000160: 984c 213e 7e7c 5abb 1420 6abe 497c b1be
00000170: fabe a2be faa6 02bf e6ee 1dbe 89a2 b5be
00000180: 5e16 18be 4c3a 01be 21d8 31be 3374 9dbe
00000190: c813 41be 683b 39be dafd d4bc e187 23be
000001a0: 8ea7 58be 1639 86be a642 bfbd 5df8 a9be
000001b0: ba88 71be bc15 c5bd c112 4ebd 0c1c c73b
000001c0: 18e2 a1be b253 74be

act_fs.0.weight f4 [14, 4]
-0.08477107 0.061926488 -0.14852998 -0.05306345 -0.09408623 -0.0004464873 0.034937557 0.011720756
0.00599063 0.126269 0.10156888 -0.051647443 -0.01839734 -0.043647666 -0.17947067 -0.0650841
0.048504014 -0.105379805 0.14545713 0.14080422 -0.051389214 0.08788012 0.0901945 0.12173482
0.06843269 0.0059918435 -0.16487458 0.008742175 -0.008431595 -0.05454262 0.18105747 0.09630906
0.051516693 0.01792458 0.08455765 -0.030387796 -0.0008522126 0.010825074 -0.07309507 -0.035840522
-0.0601157 -0.056856837 -0.19428039 0.03331829 -0.012766923 0.07976279 -0.1063816 0.03219826
-0.0641356 -0.07722748 -0.0127537 -0.07391047 0.021115676 -0.015610337 0.12241961 0.12372108
00000000: 749c adbd a1a6 7d3d 3e18 18be 0f59 59bd
00000010: 48b0 c0bd 8316 eab9 af1a 0f3d 6a08 403c
00000020: 0c4d c43b a94c 013e 5803 d03d 458c 53bd
00000030: 05b6 96bc e5c7 32bd 29c7 37be d04a 85bd
00000040: 25ac 463d 5ed1 d7bd b7f2 143e fb2e 103e
00000050: 7f7d 52bd 7efa b33d e5b7 b83d 1b50 f93d
00000060: 7026 8c3d 3a57 c43b e2d4 28be 573b 0f3c
00000070: ac24 0abc 1568 5fbd 2167 393e af3d c53d
00000080: 2b03 533d 92d6 923c 902c ad3d d4ef f8bc
00000090: 0567 5fba a75b 313c deb2 95bd 83cd 12bd
000000a0: e13b 76bd b7e2 68bd 70f1 46be c278 083d
000000b0: 5b2c 51bc ac5a a33d 99de d9bd 53e2 033d
000000c0: 8759 83bd 7129 9ebd e5f4 50bc 5f5e 97bd
000000d0: c8fa ac3c 80c2 7fbc 22b7 fa3d 7a61 fd3d

act_fs.0.bias f4 [14]
-0.36822152 0.12943257 0.334797 0.39073092 -0.44289893 -0.1485728 0.28475177 0.41191018
-0.021675805 -0.12330475 -0.10068289 -0.051849972 0.019884564 -0.1315535
00000000: 8887 bcbe f989 043e 836a ab3e e20d c83e
00000010: a6c3 e2be 7823 18be fcca 913e e4e5 d23e
00000020: 7591 b1bc 3387 fcbd d532 cebd a360 54bd
00000030: f4e4 a23c f6b5 06be

layers.0.weight f4 [128, 128]
-0.13621892 0.3518789 0.22705904 -0.109009385 0.2239746 -0.48158213 -0.13206472 -0.30737588
-0.28503886 -0.38654044 -0.38444588 -0.22658716 0.115115784 0.29212633 0.12446482 -0.025975564
0.010725571 -0.09234679 0.20219457 0.18611036 -0.17189625 -0.12792955 -0.09069937 -0.07786128
0.08261052 -0.060495414 0.1092921 0.17058915 -0.23349468 0.08400074 -0.5070442 -0.14240043
-0.27980924 0.11387007 -0.11972904 0.39916205 0.25905764 0.27204123 0.3580461 -0.052945368
-0.43763974 -0.54400337 -0.009039961 -0.38090214 0.12760678 -0.07573782 0.25557998 0.053644054
-0.066412345 0.11623216 0.25603107 0.18568732 -0.039183233 -0.27144998 -0.24231862 -0.4402861
0.09008887 0.050544336 -0.042627197 0.18228464 -0.2710474 -0.06194234 -0.43695012 -0.32307625
0.1579257 0.15160663 -0.03875743 0.35497817 -0.05828316 0.20576665 0.086002804 -0.5167949
0.39905408 0.24239366 -0.27951032 0.05929896 0.018619424 -0.4644932 -0.48605594 -0.26192352
-0.035109945 -0.3472994 0.23686618 0.31766167 0.2065192 0.16008385 -0.55941236 0.3148688
0.012756696 0.23476075 0.21395807 -0.14558583 -0.010464912 0.22024038 -0.45355156 -0.31942415
-0.01997431 -0.10697316 0.37446335 0.07843004 -0.34410432 -0.12520036 -0.014271705 0.117307454
-0.070251934 -0.15714946 0.22256006 0.0028876988 -0.23309538 0.056850545 -0.058086965 -0.19944
0.105715334 0.06991231 0.008589852 -0.121949926 0.0060029645 -0.0054233186 0.10838825 0.10611537
0.051183976 0.022415465 -0.051321514 -0.015386034 0.12483017 0.08479855 -0.028844118 -0.13341519
-0.24262181 0.010846216 0.022321982 -0.02520039 0.20021743 0.054140262 -0.10659236 -0.18394867
-0.56470346 -0.018005399 -0.041595094 -0.044361185 0.11794976 -0.13426049 0.093693316 -0.675427
-0.035067406 -0.16795757 -0.36449087 -0.052775588 -0.33766434 0.061959993 -0.20707288 0.014060677
-0.152745 0.040514547 0.010573632 -0.24572669 -0.011883985 0.026462859 -0.021215532 -0.15367754
0.060613476 0.0041595674 -0.02079828 -0.16462778 -0.07355243 0.059945755 -0.36443478 -0.00084153406
-0.15766484 -0.062909 0.18783896 -0.11472111 -0.22756101 0.17369047 0.025052177 -0.008151157
-0.007377454 0.09613876 -0.22063582 0.18487206 -0.040807847 0.059811123 0.1351979 -0.0018491101
-0.07704742 0.15633355 0.065858975 0.26861867 0.13459553 -0.23786668 -0.07211253 -0.16866541
0.15472777 -0.2646024 -0.12671998 -0.10019019 -0.050942924 0.10090532 0.07320253 -0.07631539
-0.0021420822 -0.43450114 -0.4622732 -0.3884335 -0.47576085 -0.23830064 0.12983578 0.098597884
0.00023860527 0.1629883 0.18244198 -0.15738955 0.058425322 0.008674346 0.41507223 -0.11897398
-0.0227691 -0.6397744 -0.13482289 -0.3320505 -0.40870273 0.23306036 -0.20559303 0.16319638
-0.21075977 0.009248635 -0.48828843 -0.43579555 0.22581562 -0.06837169 -0.07524522 0.12145619
0.19075583 0.005009066 -0.37361127 -0.20269604 -0.040122066 0.0104547385 -0.19369215 0.16987877
-0.14083253 -0.04049675 0.006820052 0.059006806 0.14596687 0.14685218 -0.28721908 -0.13775383
0.070338465 0.15733448 -0.09513348 -0.1333279 -0.0041291066 -0.23912741 -0.0028746675 -0.049592607
00000000: f97c 0bbe 7929 b43e 2a82 683e 5040 dfbd
00000010: 9959 653e ef91 f6be f93b 07be 5f60 9dbe
00000020: 9df0 91be a1e8 c5be 17d6 c4be 7706 68be
00000030: d3c1 eb3d 9591 953e 69e7 fe3d b5ca d4bc
00000040: 4eba 2f3c 5020 bdbd 180c 4f3e b793 3e3e
00000050: 9205 30be f7ff 02be 97c0 b9bd bc75 9fbd
00000060: b42f a93d 0aca 77bd 89d4 df3d ecae 2e3e
00000070: 3b19 6fbe 9408 ac3d a6cd 01bf 6bd1 11be
00000080: 2843 8fbe b634 e93d 8034 f5bd f85e cc3e
00000090: 34a3 843e fd48 8b3e d251 b73e 3edd 58bd
000000a0: 5112 e0be ce43 0bbf 581c 14bc 9b05 c3be
000000b0: 5aab 023e 6e1c 9bbd 61db 823e deb9 5b3d
000000c0: 3203 88bd 200b ee3d 8116 833e d124 3e3e
000000d0: 997e 20bd 7efb 8abe 5f22 78be 2e6d e1be
000000e0: 8380 b83d 9407 4f3d db99 2ebd d3a8 3a3e
000000f0: bac6 8abe 40b7 7dbd edb7 dfbe 406a a5be
00000100: 46b7 213e c53e 1b3e 1cc0 1ebd b3bf b53e
00000110: 53ba 6ebd 7eb4 523e 3d22 b03d ac4c 04bf
00000120: d150 cc3e 0b36 783e fa1b 8fbe 77e3 723d
00000130: c387 983c 0dd2 edbe 53dc f8be d71a 86be
00000140: 72cf 0fbd 3ad1 b1be 0c8d 723e 8da4 a23e
00000150: c579 533e 05ed 233e a635 0fbf 7c36 a13e
00000160: 7601 513c 1f65 703e d317 5b3e 7414 15be
00000170: 0675 2bbc b286 613e e937 e8be 908b a3be
00000180: 2aa1 a3bc be14 dbbd a9b9 bf3e ee9f a03d
00000190: 712e b0be 8634 00be dfd3 69bc e43e f03d
000001a0: 3fe0 8fbd caeb 20be c9e6 633e 8c3f 3d3b
000001b0: 8eb0 6ebe 1edc 683d 99ec 6dbd 003a 4cbe
000001c0: 4881 d83d 2f2e 8f3d 73bc 0c3c e2c0 f9bd
000001d0: 84b4 c43b 18b6 b1bb a9fa dd3d 0453 d93d
000001e0: 4aa6 513d a3a0 b73c 8236 52bd b415 7cbc
000001f0: f6a6 ff3d ddaa ad3d 804a ecbc fe9d 08be
00000200: da71 78be 54b4 313c 97dc b63c 0c71 cebc
00000210: cc05 4d3e 2ec2 5d3d 184d dabd 0a5d 3cbe
00000220: 6890 10bf 0f80 93bc 9e5f 2abd 13b4 35bd
00000230: a58f f13d 957b 09be 48e2 bf3d c9e8 2cbf
00000240: d7a2 0fbd 12fd 2bbe 8c9e babe 372b 58bd
00000250: 57e2 acbe c3c9 7d3d ea0a 54be c15e 663c
00000260: 2f69 1cbe 95f2 253d 073d 2d3c c79f 7bbe
00000270: 0cb5 42bc a3c8 d83c 32cc adbc a55d 1dbe
00000280: d645 783d fb4c 883b 2861 aabc 2f94 28be
00000290: a8a2 96bd ae89 753d 3297 babe 659a 5cba
000002a0: e472 21be 6fd6 80bd db58 403e e7f2 eabd
000002b0: c105 69be eadb 313e 393a cd3c 6e8c 05bc
000002c0: 92be f1bb 66e4 c43d 5bee 61be 1a4f 3d3e
000002d0: 2126 27bd 82fc 743d 5171 0a3e d75d f2ba
000002e0: 0acb 9dbd e715 203e 12e1 863d 6388 893e
000002f0: 69d3 093e 5393 73be bcaf 93bd a0b6 2cbe
00000300: f570 1e3e f779 87be e2c2 01be 8430 cdbd
00000310: 87a9 50bd 73a7 ce3d 35eb 953d 3e4b 9cbd
00000320: 2d62 0cbb ef76 debe 13af ecbe c1e0 c6be
00000330: ed96 f3be 1505 74be acf3 043e b0ed c93d
00000340: 1d32 7a39 68e6 263e 12d2 3a3e ba2a 21be
00000350: 644f 6f3d d81e 0e3c 5984 d43e a1a8 f3bd
00000360: 4386 babc 41c8 23bf 030f 0abe 8602 aabe
00000370: 7c41 d1be 60a7 6e3e fb86 52be f41c 273e
00000380: 69d1 57be 9687 173c f100 fabe 9820 dfbe
00000390: 363c 673e 7506 8cbd 2a1a 9abd 06be f83d
000003a0: 7f55 433e 1723 a43b fa49 bfbe 8d8f 4fbe
000003b0: 0957 24bd 5a4a 2b3c 3c57 46be b3f4 2d3e
000003c0: 6736 10be ecdf 25bd be7a df3b 1fb1 713d
000003d0: 5778 153e 6b60 163e 610e 93be 570f 0dbe
000003e0: 9d0d 903d 4a1c 213e 58d5 c2bd 1c87 08be
000003f0: 754d 87bb d1dd 74be eb64 3cbb 9e21 4bbd

layers.0.bias f4 [128]
0.21295576 0.2651681 0.043695837 -0.1988362 -0.26483056 -0.110082366 0.13869792 -0.1175153
-0.09951043 -0.17217016 0.05645297 0.3766355 -0.10687571 -0.22381869 0.43074766 -0.11143316
-0.07295667 -0.036533583 0.25249526 -0.10328065 -0.22993433 0.28919548 0.12523217 -0.024485702
-0.095583655 -0.1869558 0.07048101 0.21383081 -0.040573988 -0.12953769 -0.11473061 0.08703239
-0.18039234 -0.18075304 -0.13183607 0.052814882 0.10618261 0.18293384 0.25902295 0.20402752
-0.05111501 -0.13885672 0.25047794 0.02761555 -0.06536086 0.14731207 0.18853053 -0.12115519
-0.10485052 -0.034434967 -0.19843522 0.09362532 -0.03288453 -0.04941565 0.23532313 -0.022704806
-0.113602415 -0.18426087 -0.020258952 -0.10264543 -0.08946355 0.05000726 0.29505813 -0.08194322
-0.12536363 -0.03768664 -0.032969054 -0.063691705 0.091899924 -0.17833701 0.21128961 0.23939575
-0.03364707 -0.089181244 -0.046459373 0.25900334 -0.06296338 -0.119522266 -0.16462846 -0.17013566
-0.04396524 0.28051338 -0.046952095 -0.086464085 0.17108294 0.4893633 -0.12534505 -0.15649907
0.07528925 -0.102949634 -0.043749105 0.16456324 -0.07577817 0.33716792 -0.21094136 -0.19748008
-0.0803942 0.17753649 0.35946542 -0.17861082 0.3565715 0.0056920554 0.017694393 0.24629699
-0.098758444 -0.0791227 -0.061679404 0.037482813 -0.10388083 -0.062434025 0.13552162 -0.017505087
-0.04879033 -0.116203845 -0.04431457 0.10551521 0.08729234 0.10452753 0.17130223 -0.11494226
0.01218954 0.0773807 -0.04432049 -0.010991909 -0.097477034 -0.078838654 -0.06941316 -0.08562
00000000: 1311 5a3e 1dc4 873e 68fa 323d b89b 4bbe
00000010: df97 87be dd72 e1bd d406 0e3e ddab f0bd
00000020: 20cc cbbd 604d 30be 3b3b 673d 5ed6 c03e
00000030: a7e1 dabd ba30 65be f58a dc3e 1237 e4bd
00000040: 4e6a 95bd 3da4 15bd 0f47 813e ce84 d3bd
00000050: e873 6bbe 6e11 943e dd3c 003e 3d96 c8bc
00000060: 5dc1 c3bd 5771 3fbe 5958 903d 77f6 5a3e
00000070: e930 26bd 87a5 04be e2f7 eabd 0a3e b23d
00000080: c5b8 38be 5317 39be 0900 07be 6b54 583d
00000090: 4576 d93d 0253 3b3e a89e 843e 97ec 503e
000000a0: f95d 51bd 7530 0ebe a53e 803e 023a e23c
000000b0: eadb 85bd fad8 163e 260e 413e 3620 f8bd
000000c0: dfbb d6bd ae0b 0dbd 9a32 4bbe a2be bf3d
000000d0: eeb1 06bd 1168 4abd 8cf8 703e 6eff b9bc
000000e0: 62a8 e8bd e2ae 3cbe 1af6 a5bc c437 d2bd
000000f0: aa38 b7bd 6ad4 4c3d dc11 973e d9d1 a7bd
00000100: 535f 00be 4e5d 1abd 8f0a 07bd cc70 82bd
00000110: 0736 bc3d fa9d 36be 4e5c 583e 2924 753e
00000120: 83d1 09bd a8a4 b6bd 2f4c 3ebd 169c 843e
00000130: f2f2 80bd 17c8 f4bd 5d94 28be 0b38 2ebe
00000140: e514 34bd 739f 8f3e d750 40bd 1514 b1bd
00000150: 5e30 2f3e d48d fa3e 745a 00be 4b41 20be
00000160: 4031 9a3d 42d7 d2bd 4332 33bd 4483 283e
00000170: 9631 9bbd 46a1 ac3e 0301 58be 3838 4abe
00000180: b7a5 a4bd 20cc 353e da0b b83e c1e5 36be
00000190: 8a90 b63e 6c84 ba3b d5f3 903c 4735 7c3e
000001a0: de41 cabd 150b a2bd 8ba3 7cbd 9487 193d
000001b0: 79bf d4bd d2ba 7fbd 2ec6 0a3e d466 8fbc
000001c0: 5ed8 47bd 48fc edbd 3283 35bd 5c18 d83d
000001d0: 54c6 b23d 8812 d63d da69 2f3e d966 ebbd
000001e0: a3b6 473c c679 9e3d 6789 35bd 6817 34bc
000001f0: 0aa2 c7bd 2976 a1bd 7d28 8ebd 8a59 afbd

olin.weight f4 [1, 128]
0.08650007 0.0941824 0.039593022 -0.36425662 -0.16623566 0.14673297 0.05948532 -0.31978244
0.072478615 -0.14326218 0.078847155 0.15051532 -0.112157084 -0.015562539 0.28011373 -0.18412606
0.0014342769 -0.016556455 0.033447977 -0.052903295 -0.13364571 0.10026817 0.057852663 -0.113974415
-0.14443049 -0.074338496 0.06701872 0.10311153 0.07225655 -0.10200671 -0.072349936 0.07994351
-0.08480548 -0.1345342 -0.09837423 0.14742537 0.06267215 0.043474186 0.093980625 0.07739551
-0.078329004 0.04580065 0.20812698 -0.043040775 -0.16277097 0.06279093 0.08368041 -0.118925504
-0.05593366 0.1300866 -0.04966119 0.0735541 -0.090590015 -0.035308994 0.05855108 -0.09442355
-0.057272602 -0.18396349 0.10537107 0.20308392 0.057053197 0.048687298 0.09606005 0.10797141
0.077059984 -0.14292403 0.12951952 0.053438354 0.08230178 -0.16504115 0.07722836 0.09093944
-0.0410612 -0.068752475 0.011427563 0.0422476 0.00012252654 0.21924202 -0.12013957 -0.068946674
0.10586402 0.087277204 -0.06360859 -0.44089103 0.087954886 0.27418938 -0.12299444 -0.07873223
0.07347128 -0.10752306 0.107865036 0.042356502 0.013092917 0.15924527 -0.33550262 -0.27966627
-0.07836717 0.043741193 0.10043849 -0.008110199 0.1592293 -0.19233735 0.10784743 0.117924854
0.07504578 0.13725458 -0.06198091 0.04261711 0.06726961 -0.085471466 0.028998662 -0.054669198
0.061434146 -0.3802882 -0.10360587 0.055806737 0.07126883 0.05448115 0.07688901 0.013898836
-0.43546614 0.025101416 0.10573946 0.012292267 0.07025451 -0.11425393 -0.17859517 -0.08324758
00000000: f326 b13d b4e2 c03d 4b2c 223d d87f babe
00000010: ae39 2abe 2b41 163e e1a6 733d 86ba a3be
00000020: ab6f 943d 52b3 12be 9e7a a13d b020 1a3e
00000030: 9db2 e5bd 05fa 7ebc 116b 8f3e 8b8b 3cbe
00000040: 59fe bb3a 67a1 87bc bf00 093d 20b1 58bd
00000050: 6cda 08be 6659 cd3d eaf6 6c3d 6b6b e9bd
00000060: 96e5 13be c83e 98bd 1c41 893d 232c d33d
00000070: 3efb 933d e5e8 d0bd 342c 94bd 6cb9 a33d
00000080: 7fae adbd 55c3 09be 6e78 c9bd adf6 163e
00000090: 425a 803d fd11 323d ea78 c03d 8a81 9e3d
000000a0: f56a a0bd 7699 3b3d 3d1f 553e 864b 30bd
000000b0: 6fad 26be 8898 803d a360 ab3d 378f f3bd
000000c0: b21a 65bd 6c35 053e 8869 4bbd 88a3 963d
000000d0: 4287 b9bd 2aa0 10bd 42d3 6f3d 2261 c1bd
000000e0: ad96 6abd ed60 3cbe cacc d73d 3bf5 4f3e
000000f0: 9db0 693d 556c 473d 22bb c43d 1d20 dd3d
00000100: a0d1 9d3d ad5a 12be c4a0 043e 2de2 5a3d
00000110: d68d a83d 8c00 29be e729 9e3d 753e ba3d
00000120: ca2f 28bd 19ce 8cbd ac3a 3b3c d20b 2d3d
00000130: 787a 0039 fb80 603e bc0b f6bd ea33 8dbd
00000140: 3ccf d83d 64be b23d 3845 82bd 78bc e1be
00000150: b121 b43d 8d62 8c3e 82e4 fbbd 5d3e a1bd
00000160: 1c78 963d 0d35 dcbd 58e8 dc3d 037e 2d3d
00000170: ad83 563c 3111 233e 00c7 abbe 6b30 8fbe
00000180: f87e a0bd f729 333d b2b2 cd3d a4e0 04bc
00000190: 010d 233e 15f4 44be 1ddf dc3d 9682 f13d
000001a0: 9ab1 993d 778c 0c3e b2df 7dbd 478f 2e3d
000001b0: a6c4 893d aa0b afbd 9a8e ed3c cfec 5fbd
000001c0: 5fa2 7b3d 23b5 c2be 502f d4bd 9b95 643d
000001d0: 64f5 913d a027 5f3d fc77 9d3d f2b7 633c
000001e0: 6bf5 debe 7ca1 cd3c ee8d d83d 8165 493c
000001f0: 99e1 8f3d f7fd e9bd a7e1 36be b57d aabd
