c_target.pth (torch_old, 84772 bytes, 11 tensors)

state_fs.0.weight f4 [33]
0.41315416 0.14966005 0.41963384 0.026133299 1.0038282e-05 0.07782005 -0.00021519292 0.026250996
0.034686055 0.026495498 0.04609322 0.05494764 0.060792558 0.7086037 0.30644962 0.75029886
0.07956347 0.0650461 0.055233344 0.09162566 0.03191837 0.045609888 0.03745488 0.29575476
0.09033012 0.26980272 0.9107978 0.5869643 0.6725207 0.34089828 0.1393798 0.2296522
0.723896
00000000: f188 d33e 7c40 193e 3fda d63e 8015 d63c
00000010: 186a 2837 1e60 9f3d 69a5 61b9 540c d73c
00000020: f712 0e3d 160d d93c 3fcc 3c3d c710 613d
00000030: 9e01 793d 0d67 353f f7e6 9c3e 9613 403f
00000040: 2cf2 a23d e436 853d 5c3c 623d 3ca6 bb3d
00000050: d6bc 023d 6fd1 3a3d 4a6a 193d 2b6d 973e
00000060: fffe b83d 9523 8a3e 0b2a 693f 4b43 163f
00000070: 512a 2c3f 388a ae3e 94b9 0e3e f229 6b3e
00000080: 4051 393f

state_fs.0.bias f4 [33]
0.06411112 -0.1786889 -0.005235804 0.00025176344 0.00039244938 -0.02616003 0.00013929528 -0.006972168
0.007309431 -0.0014106763 -0.0029675525 -0.042838868 -0.0022200858 -0.0771253 0.17363186 0.0478752
0.00878762 0.025696186 -0.0025763148 -0.06475753 0.0033077747 0.0043246825 0.014296257 0.019736554
0.045882966 -0.060223002 -0.030484503 -9.928793e-06 0.07842115 7.757983e-05 -0.00012934874 0.027836572
0.00096923724
00000000: b14c 833d 39fa 36be 1b91 abbb 1eff 8339
00000010: aac1 cd39 8f4d d6bc cb0f 1239 c976 e4bb
00000020: f483 ef3b 71e6 b8ba 457b 42bb cf77 2fbd
00000030: dc7e 11bb dff3 9dbd 8dcc 313e c918 443d
00000040: f3f9 0f3c cf80 d23c 64d7 28bb 999f 84bd
00000050: 40c7 583b 11b6 8d3b d93a 6a3c 8eae a13c
00000060: c7ef 3b3d 65ac 76bd a3ba f9bc d793 26b7
00000070: 459b a03d 5bb2 a238 caa1 07b9 8609 e43c
00000080: 6914 7e3a

state_fs.0.running_mean f4 [33]
-0.11777746 -2.817337 -0.0058195665 0.9210201 -0.015222211 0.0015825502 0.002333294 -0.00662296
0.0041568046 -0.007923896 -0.019346535 0.013313885 0.01762226 0.15501253 -2.9832287 0.10002098
0.023969445 -0.032420702 0.038026094 -0.18454348 0.11254032 0.048445657 0.0033917553 -0.018496523
0.1511622 0.010750238 -0.08869622 -0.99999976 -0.10571599 0.0 0.99999976 0.0
-0.016923008
00000000: 4f35 f1bd 404f 34c0 10b2 bebb f9c7 6b3f
00000010: 9566 79bc 936d cf3a 2dea 183b 6a05 d9bb
00000020: ce35 883b 3bd3 01bc a07c 9ebc 7b22 5a3c
00000030: 8f5c 903c 9bbb 1e3e 38ed 3ec0 cdd7 cc3d
00000040: 925b c43c 92cb 04bd 40c1 1b3d f7f8 3cbe
00000050: 8a7b e63d f46e 463d 3648 5e3b 0586 97bc
00000060: 44ca 1a3e c421 303c 5da6 b5bd fcff 7fbf
00000070: a081 d8bd 0000 0000 fcff 7f3f 0000 0000
00000080: 1fa2 8abc

state_fs.0.running_var f4 [33]
3.6714892 0.1645962 4.254794 0.0008363926 0.06034843 0.0037608014 0.0864058 0.18630612
0.04609962 0.108227216 2.0930607 0.45662728 1.9980338 22.238092 0.83893394 23.967623
0.09455962 0.35906485 0.078245305 0.43113592 2.5705428 1.5616938 0.40715855 9.191164
3.987586 8.6806965 31.648252 6e-45 32.29399 6e-45 6e-45 6e-45
0.32922155
00000000: aef9 6a40 e88b 283e 4627 8840 5b41 5b3a
00000010: ea2f 773d c777 763b 86f5 b03d 08c7 3e3e
00000020: f5d2 3c3d 3ba6 dd3d b5f4 0540 0dcb e93e
00000030: 92bf ff3f 9de7 b141 60c4 563f b1bd bf41
00000040: 79a8 c13d 59d7 b73e 133f a03d d9bd dc3e
00000050: c683 2440 95e5 c73f 1677 d03e 020f 1341
00000060: 9c34 7f40 22e4 0a41 9f2f fd41 0400 0000
00000070: 0c2d 0142 0400 0000 0400 0000 0400 0000
00000080: ba8f a83e

state_fs.1.weight f4 [114, 33]
-0.10786214 0.16047558 -0.03564764 0.21726246 0.11342656 -0.3218059 -0.012731124 -0.24715565
-0.12750642 -0.2609733 -0.037993543 0.123655625 0.0983453 0.12165981 -0.06648103 0.4556176
0.008349964 0.0411924 0.26129267 0.0278241 0.05902557 0.118445545 -0.039931655 -0.09026836
0.11006154 0.39029002 0.26734474 0.024537822 -0.1823937 -0.016713435 -0.0019526667 -0.36078683
0.47581476 -0.0029469384 0.16348137 0.18335499 0.14164597 -0.03092169 0.002903138 -0.07229093
-0.11852665 0.03728843 -0.010855603 -0.08235528 -0.12660696 0.2653448 0.16618188 -0.07137027
-0.047911383 -0.13445325 0.16383612 0.39503577 0.13177225 -0.1178219 -0.025595345 -0.14013024
-0.0968757 -0.02094883 0.37365884 -0.26924902 -0.00016569174 0.2807736 -0.0024697052 -0.0035047722
-0.4068841 -0.46518242 -0.004797297 0.09227733 0.10250917 0.26851344 -0.027818032 -0.35286433
0.019386586 -0.10581171 -0.059046187 0.009505574 -0.08117105 -0.04090032 0.030633112 0.055184238
-0.06257881 -0.27449176 -0.0970988 0.01950449 0.11159356 0.12694997 -0.04892442 0.0030198996
-0.0725677 -0.11501288 0.029066257 0.15357102 -0.23301315 -0.00105952 0.6824424 -0.009407708
-0.0178015 -0.22171885 0.56218433 0.107290074 0.15097883 0.09250675 0.017768264 -0.060185354
-0.26235703 0.06026572 0.016144373 0.024151802 0.07545267 0.113910615 -0.050632294 0.12532693
-0.08631999 -0.08834892 -0.18392088 -0.2913982 -0.13910778 -0.366475 -0.21783331 -0.20893349
0.03892447 -0.16235499 0.057388123 -0.044843737 0.03680221 0.3668493 0.0038624888 0.018736549
-0.003916314 -0.023428446 0.104413785 -0.6378589 0.11658193 -0.1393284 -0.15715218 0.03865096
-0.0050255116 0.48476198 0.058944028 0.09222231 -0.37507543 0.038157843 -0.007912132 0.1382424
-0.10001321 -0.0410581 0.19283524 0.24206895 -0.18324079 -0.08394239 -0.17064963 0.47946048
-0.10269048 0.104745984 0.03832849 -0.2641037 0.20209718 0.054492433 -0.22372864 -0.008935187
-0.07388528 -0.0052313814 0.00036328266 -0.16247211 -0.2799655 -0.01250131 0.22111069 -0.7008386
0.1825302 -0.07822055 -0.034955867 0.08340826 0.1856693 0.2594903 0.15293777 0.052325927
0.21712218 -0.31213978 -0.050103817 0.017166443 0.24247581 0.006803639 -0.21286969 -0.14436719
-0.22088936 -0.4519117 -0.051130045 -0.09887551 -0.05697161 -0.10083567 0.23933682 -0.0067928564
0.020633351 0.18807879 0.0065838518 -0.0068909186 -0.28068456 -0.098647475 -0.18481322 0.16571069
-0.1507586 0.29801413 0.0808983 -0.010729798 -0.026261196 -0.04353266 0.075254306 0.05039721
-0.27984416 -0.13637255 -0.28744403 0.032849196 -0.1413434 0.08928591 0.18688056 0.35449916
-0.29403248 0.34154746 0.31742674 -0.024722476 0.028530698 -0.08959544 -0.17638977 0.2905691
-0.043696545 -0.01984824 0.5141332 0.016481938 0.0005238022 -0.29270607 -0.22145393 0.17809895
0.43404216 0.0018931576 0.10264638 -0.006899913 -0.17456996 -0.099619955 0.005361858 0.22519659
0.09872972 0.22369887 0.39063346 -0.18592407 -0.04205514 -0.2205695 0.19217755 0.020020667
-0.3961112 -0.30779374 0.74482316 0.31970173 0.5050607 0.22745088 -0.071668915 0.48591146
00000000: d3e6 dcbd b653 243e 4203 12bd 0d7a 5e3e
00000010: 2f4c e83d bec3 a4be 3496 50bc 5f16 7dbe
00000020: 0b91 02be 4b9e 85be 1e9f 1bbd 293f fd3d
00000030: 4369 c93d c728 f93d 3527 88bd b646 e93e
00000040: 4ace 083c 5db9 283d 27c8 853e 5eef e33c
00000050: ccc4 713d 9493 f23d 608f 23bd 9ede b8bd
00000060: f267 e13d 18d4 c73e 69e1 883e 8b03 c93c
00000070: 6ac5 3abe 9dea 88bc 9ff0 ffba 0db9 b8be
00000080: fe9d f33e 6c21 41bb a967 273e 69c1 3b3e
00000090: a40b 113e 7c4f fdbc 9342 3e3b 440d 94bd
000000a0: 1abe f2bd c1bb 183d b3db 31bc e3a9 a8bd
000000b0: 41a5 01be 46db 873e 952b 2a3e 932a 92bd
000000c0: ba3e 44bd 1dae 09be a8c4 273e 2142 ca3e
000000d0: 4eef 063e 9c4c f1bd 54ad d1bc 4d7e 0fbe
000000e0: c466 c6bd e19c abbc 3650 bf3e 02db 89be
000000f0: 8abd 2db9 8fc1 8f3e c7da 21bb 52b0 65bb
00000100: 1d53 d0be 642c eebe a532 9dbb e6fb bc3d
00000110: 54f0 d13d 987a 893e a4e2 e3bc a2aa b4be
00000120: 9ed0 9e3c cfb3 d8bd 6ada 71bd 44bd 1b3c
00000130: 023d a6bd 1887 27bd 4bf2 fa3c de08 623d
00000140: 5229 80bd 2f8a 8cbe bcdb c6bd e1c7 9f3c
00000150: 2a8b e43d 2cff 013e f964 48bd 82e9 453b
00000160: 609e 94bd df8b ebbd 5c1c ee3c b941 1d3e
00000170: 009b 6ebe 97df 8aba 8cb4 2e3f ca22 1abc
00000180: 74d4 91bc 440a 63be 50eb 0f3f e6ba db3d
00000190: 329a 1a3e 2e74 bd3d c08e 913c eb84 76bd
000001a0: a953 86be 30d9 763d 3441 843c 00da c53c
000001b0: ee86 9a3d f849 e93d cf63 4fbd b455 003e
000001c0: 89c8 b0bd 47f0 b4bd c155 3cbe 2532 95be
000001d0: 4572 0ebe 9ca2 bbbe b20f 5fbe a9f2 55be
000001e0: 446f 1f3d 6340 26be cf0f 6b3d 11ae 37bd
000001f0: eabd 163d acd3 bb3e cf21 7d3b 647d 993c
00000200: 6c54 80bb 03ed bfbc e5d6 d53d b94a 23bf
00000210: 82c2 ee3d 1bac 0ebe 80ec 20be 7850 1e3d
00000220: 0cad a4bb b932 f83e 4b6f 713d 0ddf bc3d
00000230: e309 c0be 664b 1c3d e3a1 01bc 6a8f 0d3e
00000240: bad3 ccbd 8a2c 28bd 9a76 453e ece0 773e
00000250: 79a3 3bbe fde9 abbd c7be 2ebe d87b f53e
00000260: 634f d2bd 1085 d63d 56fe 1c3d 9a38 87be
00000270: 90f2 4e3e 7533 5f3d 1f19 65be e464 12bc
00000280: 2a51 97bd 026c abbb f976 be39 175f 26be
00000290: a357 8fbe 4bd2 4cbc d76a 623e 296a 33bf
000002a0: 32e9 3a3e 1932 a0bd e22d 0fbd f3d1 aa3d
000002b0: 1820 3e3e eadb 843e b89b 1c3e b653 563d
000002c0: 4755 5e3e c9d0 9fbe a939 4dbd a4a0 8c3c
000002d0: 944b 783e 0ff1 de3b 83fa 59be fed4 13be
000002e0: d230 62be f860 e7be bd6d 51bd 3e7f cabd
000002f0: 105b 69bd ef82 cebd b614 753e 9c96 debb
00000300: 4607 a93c ba97 403e 5abd d73b 37cd e1bb
00000310: e3b5 8fbe b007 cabd ad3f 3dbe 10b0 293e
00000320: 7660 1abe 4f95 983e 02ae a53d 09cc 2fbc
00000330: b821 d7bc 4d4f 32bd ee1e 9a3d 4e6d 4e3d
00000340: bc47 8fbe 3fa5 0bbe dd2b 93be e18c 063d
00000350: 53bc 10be 88db b63d 9e5d 3f3e ea80 b53e
00000360: 6d8b 96be 4fdf ae3e c285 a23e ca86 cabc
00000370: 36b9 e93c d07d b7bd 859f 34be 79c5 943e
00000380: 26fb 32bd c798 a2bc 3c9e 033f 2105 873c
00000390: c54f 093a 92dd 95be d2c4 62be 925f 363e
000003a0: c63a de3e d423 f83a 4438 d23d aa18 e2bb
000003b0: 78c2 32be 8c05 ccbd 86b2 af3b ef99 663e
000003c0: cf32 ca3d 5111 653e 1c01 c83e e162 3ebe
000003d0: 0342 2cbd f9dc 61be 31ca 443e 6202 a43c
000003e0: 16cf cabe 2497 9dbe bbac 3e3f f2af a33e
000003f0: a84b 013f e2e8 683e 27c7 92bd 63c9 f83e

state_fs.1.bias f4 [114]
-0.42859334 -0.31043357 -0.06684712 -0.12140838 -0.2799983 0.041847326 -0.176038 -0.2562075
-0.21580237 -0.11129404 -0.19865555 -0.051019944 -0.28860435 -0.3535728 -0.056933403 -0.12385625
-0.29233468 -0.109124675 -0.33715683 -0.041027505 -0.2486897 0.04343306 -0.16401742 -0.17344268
-0.2614617 -0.025887279 -0.058163032 -0.2447494 -0.176534 -0.252718 -0.08093012 -0.21774732
-0.023711424 0.006999979 -0.53732914 -0.3188584 -0.061601058 -0.14933227 -0.44649744 0.003968233
-0.1429976 0.005196036 -0.08309452 -0.20165023 -0.18395305 -0.08145652 -0.16139263 -0.39408925
-0.0721774 -0.15458398 -0.18127468 -0.3110953 -0.36745536 0.05163821 -0.2038937 -0.104809
-0.19653349 -0.3348027 -0.26992336 -0.2561649 -0.115976736 -0.32363325 -0.4604296 -0.16783962
-0.324458 -0.23322769 -0.056606207 -0.27550653 -0.34507468 -0.43076813 -0.2298807 -0.15984565
-0.28755975 -0.04735232 -0.06554951 -0.20795435 -0.12942018 -0.24974333 -0.4833764 -0.13541052
-0.36655387 -0.35400653 -0.36768806 -0.37445876 -0.20061411 0.021162387 -0.34209228 -0.25977218
0.15339339 -0.007923313 -0.22206587 -0.3283442 -0.29956555 -0.5133106 -0.1590932 -0.34742332
-0.15168361 -0.12088908 -0.16619249 -0.30571005 -0.17920588 -0.17213957 -0.03550112 -0.15911031
-0.2059617 -0.2625894 -0.09443516 -0.32895857 -0.23322846 -0.10035468 -0.048971705 0.0018356665
-0.3133188 -0.23041925
00000000: 9670 dbbe 26f1 9ebe 25e7 88bd f5a4 f8bd
00000010: f05b 8fbe 1a68 2b3d 4e43 34be a12d 83be
00000020: 4cfb 5cbe 21ee e3bd 5c6c 4bbe 4afa 50bd
00000030: f3c3 93be 7e07 b5be 0033 69bd 58a8 fdbd
00000040: e4ac 95be c27c dfbd d29f acbe 750c 28bd
00000050: 83a8 7ebe dde6 313d 2ff4 27be f59a 31be
00000060: 4fde 85be 8f11 d4bc 5c3c 6ebd 969f 7abe
00000070: 54c5 34be 4164 81be b1be a5bd 27f9 5ebe
00000080: 763e c2bc 1460 e53b 678e 09bf 6941 a3be
00000090: 6451 7cbd 8fea 18be 509b e4be f307 823b
000000a0: f66d 12be 8243 aa3b 762d aabd 667d 4ebe
000000b0: 305e 3cbe add2 a6bd 1c44 25be 11c6 c9be
000000c0: bfd1 93bd 434b 1ebe 12a0 39be e247 9fbe
000000d0: 1c23 bcbe 9682 533d 83c9 50be 1aa6 d6bd
000000e0: 1340 49be 426b abbe 6533 8abe 0c28 83be
000000f0: 3685 edbd 42b3 a5be 6ebd ebbe 26de 2bbe
00000100: 5c1f a6be 3dd3 6ebe e9db 67bd 310f 8dbe
00000110: a1ad b0be a48d dcbe d965 6bbe 94ae 23be
00000120: 083b 93be 82f4 41bd d23e 86bd fcf1 54be
00000130: b986 04be b7bc 7fbe 1d7d f7be 0ea9 0abe
00000140: f3ac bbbe 5840 b5be 9c41 bcbe 0fb9 bfbe
00000150: c96d 4dbe be5c ad3c b826 afbe dc00 85be
00000160: 2813 1d3e c9d0 01bc 3c65 63be bb1c a8be
00000170: a860 99be 5368 03bf 54e9 22be 78e1 b1be
00000180: f352 1bbe b294 f7bd 5d2e 2abe 0786 9cbe
00000190: bf81 37be 5b45 30be 9f69 11bd d0ed 22be
000001a0: a0e7 52be 1e72 86be 3967 c1bd 426d a8be
000001b0: 71d3 6ebe c186 cdbd 8e96 48bd bf9a f03a
000001c0: 526b a0be 06f3 6bbe

act_fs.0.weight f4 [14, 4]
-0.08477752 0.06192816 -0.14854413 -0.05306558 -0.09237229 0.0023958501 0.01626463 0.015613898
0.0073756077 0.13063847 0.10054752 -0.055177186 -0.016914207 -0.046296325 -0.1786107 -0.06928996
0.05260024 -0.111453265 0.15151069 0.14830752 -0.00869584 0.06861738 0.08826917 0.12752911
0.06491445 0.0004059348 -0.16667621 0.013472925 -0.010328365 -0.055121373 0.1833516 0.09230875
0.049960744 0.008170697 0.075878724 -0.0098152775 -0.0008522584 0.010825367 -0.07310231 -0.03584334
-0.056933578 -0.04226117 -0.18295352 0.04523925 -0.01856187 0.07911617 -0.0999779 0.03402684
-0.048522994 -0.044530515 -0.0050364523 -0.08691174 0.026446644 -0.024038525 0.12894347 0.1306354
00000000: d69f adbd 62a8 7d3d f41b 18be 4b5b 59bd
00000010: af2d bdbd b203 1d3b 673d 853c 6fd1 7f3c
00000020: 15af f13b 17c6 053e dceb cd3d 7901 62bd
00000030: aa8f 8abc 37a1 3dbd b9e5 36be e5e7 8dbd
00000040: 5973 573d 9c41 e4bd 9e25 1b3e eddd 173e
00000050: ff78 0ebc 4587 8c3d 77c6 b43d fe96 023e
00000060: def1 843d a6d3 d439 2bad 2abe 8bbd 5c3c
00000070: 4d38 29bc f3c6 61bd 86c0 3b3e 5f0c bd3d
00000080: a3a3 4c3d 63de 053c 4e66 9b3d 42d0 20bc
00000090: 186a 5fba e15c 313c aab6 95bd 77d0 12bd
000000a0: 2f33 69bd 0c1a 2dbd 2b58 3bbe cb4c 393d
000000b0: 100f 98bc a907 a23d 37c1 ccbd ba5f 0b3d
000000c0: 0cc0 46bd a165 36bd d308 a5bb c8fe b1bd
000000d0: a2a6 d83c 71ec c4bc c209 043e 49c5 053e

act_fs.0.bias f4 [14]
-0.36819756 0.12918597 0.33266222 0.38868737 -0.43516394 -0.15547381 0.28345436 0.40992832
-0.0018013053 -0.12330498 -0.09785206 -0.044782836 0.0264653 -0.11903084
00000000: 6484 bcbe 5449 043e b452 aa3e 0802 c73e
00000010: cfcd debe 8734 1fbe ee20 913e 20e2 d13e
00000020: c719 ecba 5287 fcbd a966 c8bd 356e 37bd
00000030: c2cd d83c 71c6 f3bd

layers.0.weight f4 [128, 128]
-0.13942806 0.3420492 0.22532973 -0.104938745 0.21638164 -0.4829603 -0.12889901 -0.33438286
-0.2874121 -0.39213157 -0.37199205 -0.22353572 0.12592453 0.29090312 0.12707062 -0.02485169
0.009837969 -0.13353741 0.16936857 0.19072388 -0.17155038 -0.12224262 -0.09059034 -0.08455932
0.05213807 -0.07427625 0.097665325 0.17129865 -0.21851867 0.07636814 -0.47211245 -0.1439175
-0.28438848 0.109386645 -0.08226708 0.40391195 0.2464703 0.2616046 0.35880685 -0.052544307
-0.4398763 -0.5481969 -0.020847427 -0.38489544 0.13616243 -0.0681403 0.2442811 0.05730374
-0.07210606 0.1030304 0.24195562 0.1835776 -0.03252076 -0.2759917 -0.24038221 -0.42967352
0.06995054 0.036505926 -0.055333417 0.17416619 -0.25387478 -0.08283291 -0.43713525 -0.34208235
0.15780981 0.1562182 -0.06474961 0.35966933 -0.04581518 0.19818573 0.07764193 -0.5029376
0.4011067 0.29542917 -0.22692586 0.026515713 -0.009944217 -0.46320003 -0.46898142 -0.25480014
-0.032862496 -0.36390242 0.2283127 0.32202643 0.21023187 0.15202515 -0.5565565 0.30317298
0.0123257255 0.21850793 0.18739434 -0.14720029 0.021966645 0.24194904 -0.45170897 -0.31909624
-0.051558185 -0.11878897 0.37444377 0.07252958 -0.34711957 -0.1450942 -0.012316099 0.118379
-0.07756552 -0.14702572 0.22180176 0.012299762 -0.2608686 0.061115164 -0.06704843 -0.19377336
0.11296732 0.07194921 0.008589233 -0.11168731 0.007769401 -0.010720454 0.11650073 0.10643714
0.050208736 0.019097904 -0.061398212 -0.015386113 0.12520397 0.08767166 -0.045777526 -0.11084664
-0.24797207 0.0065067136 0.020367838 -0.02508157 0.19987524 0.05229466 -0.11336846 -0.19139706
-0.54808366 -0.016535176 -0.04355636 -0.03184071 0.111598164 -0.12068476 0.10024733 -0.643513
-0.038717646 -0.14776444 -0.35450634 -0.04895682 -0.2974306 0.059770826 -0.2041905 0.005205468
-0.15907556 0.045575347 0.0036688186 -0.22603977 -0.015238329 0.027628567 -0.04483455 -0.16521923
0.06511533 0.0036754103 -0.035791993 -0.16172284 -0.076829754 0.06289447 -0.37731996 0.00094015006
-0.15487824 -0.06495545 0.18758413 -0.11191578 -0.22097276 0.17850739 0.013723679 -0.003803837
-0.010051519 0.101614825 -0.21450712 0.18620485 -0.041198242 0.06492372 0.13492848 -0.008988137
-0.081235774 0.15364973 0.06657541 0.2087994 0.13770497 -0.16723858 -0.07215927 -0.17828493
0.15114975 -0.25772324 -0.111259356 -0.103547394 -0.058859643 0.104867026 0.07350382 -0.06936129
-0.008674564 -0.4398616 -0.4181497 -0.37918344 -0.4959978 -0.22583012 0.1446505 0.0990437
0.0027641796 0.1523409 0.15909475 -0.157421 0.060852725 0.0075725494 0.42598283 -0.12170177
-0.022038152 -0.61551636 -0.14413849 -0.31887093 -0.42208204 0.2474787 -0.19805184 0.15853986
-0.21655829 0.012520614 -0.48700348 -0.43163875 0.22044753 -0.05630448 -0.07401696 0.11940306
0.18718942 0.011649262 -0.37862977 -0.19626892 -0.036564052 0.008165424 -0.20277363 0.16953789
-0.1401014 -0.03859499 0.0068203956 0.059512764 0.14585915 0.14276576 -0.28814796 -0.14134783
0.06709341 0.15785937 -0.091046676 -0.13331497 -0.002144231 -0.2366382 -0.0138770575 -0.047619488
00000000: 3bc6 0ebe 1321 af3e d6bc 663e 20ea d6bd
00000010: 2693 5d3e 9346 f7be 1afe 03be 3b34 abbe
00000020: ae27 93be 78c5 c8be be75 bebe 8ce6 64be
00000030: 5cf2 003e 41f1 943e cd1e 023e c595 cbbc
00000040: 6f2f 213c 08be 08be f46e 2d3e 1f4d 433e
00000050: e7aa 2fbe 575a fabd 6e87 b9bd 702d adbd
00000060: bb8e 553d 261e 98bd c204 c83d ea68 2f3e
00000070: 5cc3 5fbe e666 9c3d b9b8 f1be 1c5f 13be
00000080: 5e9b 91be 1b06 e03d a57b a8bd 8ccd ce3e
00000090: b662 7c3e 0af1 853e 88b5 b73e b338 57bd
000000a0: 7737 e1be a256 0cbf 39c8 aabc 0411 c5be
000000b0: 2a6e 0b3e 248d 8bbd d324 7a3e 54b7 6a3d
000000c0: 58ac 93bd 9a01 d33d 37c3 773e c4fb 3b3e
000000d0: 7d34 05bd c94e 8dbe c126 76be 2bfe dbbe
000000e0: 3b42 8f3d 3d87 153d 4ba5 62bd 9f58 323e
000000f0: e0fb 81be 4da4 a9bd 31d0 dfbe 6b25 afbe
00000100: e598 213e aaf7 1f3e 729b 84bd 9426 b83e
00000110: b3a8 3bbd 33f1 4a3e bb02 9f3d 85c0 00bf
00000120: db5d cd3e 7e42 973e 415f 68be 7b37 d93c
00000130: 12ed 22bc 8e28 edbe 551e f0be 2a75 82be
00000140: d39a 06bd 6b51 babe ceca 693e a6e0 a43e
00000150: 0647 573e 7bac 1b3e 7d7a 0ebf 7d39 9b3e
00000160: d7f1 493c 8bc0 5f3e 4de4 3f3e acbb 16be
00000170: 65f3 b33c 7dc1 773e 6646 e7be 9560 a3be
00000180: ad2e 53bd a247 f3bd 18b7 bf3e 638a 943d
00000190: a8b9 b1be 9393 14be 77c9 49bc b070 f23d
000001a0: acda 9ebd e98d 16be 0020 633e f184 493c
000001b0: 9290 85be e553 7a3d b050 89bd 866c 46be
000001c0: 695b e73d 1b5a 933d dbb9 0c3c 51bc e4bd
000001d0: 7696 fe3b d8a4 2fbc ef97 ee3d b7fb d93d
000001e0: ada7 4d3d 3573 9c3c b17c 7bbd 0916 7cbc
000001f0: 7835 003e 338d b33d 3781 3bbd 9003 e3bd
00000200: 64ec 7dbe 4536 d53b 74da a63c dd77 cdbc
00000210: 18ac 4c3e ed32 563d b92d e8bd 97fd 43be
00000220: 364f 0cbf c774 87bc 2768 32bd 686b 02bd
00000230: 948d e43d 9229 f7bd 794e cd3d 45bd 24bf
00000240: 6596 1ebd 904f 17be db81 b5be f286 48bd
00000250: d348 98be 41d2 743d 5017 51be a192 aa3b
00000260: b4e4 22be 37ad 3a3d 9070 703b f876 67be
00000270: 2faa 79bc 4e55 e23c 6fa4 37bd 3b2f 29be
00000280: 305b 853d 27df 703b a09a 12bd ac9a 25be
00000290: eb58 9dbd d1ce 803d 1530 c1be 6774 763a
000002a0: 6798 1ebe 5d07 85bd 0e16 403e 1a34 e5bd
000002b0: af46 62be a4ca 363e 48d9 603c cc49 79bb
000002c0: 20af 24bc 6f1b d03d c1a7 5bbe 7cac 3e3e
000002d0: 7dbf 28bd baf6 843d b12a 0a3e fb42 13bc
000002e0: f15e a6bd 5b56 1d3e b058 883d 83cf 553e
000002f0: 8802 0d3e 9740 2bbe 3dc8 93bd 5390 36be
00000300: 00c7 1a3e 4df4 83be f2db e3bd a810 d4bd
00000310: cf16 71bd 86c4 d63d 2c89 963d 4b0d 8ebd
00000320: c21f 0ebc 8a35 e1be b817 d6be 5524 c2be
00000330: 6cf3 fdbe 0340 67be 431f 143e 6cd7 ca3d
00000340: 3d27 353b 41ff 1b3e bce9 223e f832 21be
00000350: b540 793d 2623 f83b 6c1a da3e c73e f9bd
00000360: 5b89 b4bc 7b92 1dbf 0a99 13be 0d43 a3be
00000370: 231b d8be 0e6b 7d3e 1ace 4abe 4658 223e
00000380: 75c1 5dbe 4323 4d3c 8558 f9be c1ff dcbe
00000390: ffbc 613e 879f 66bd 3496 97bd 9789 f43d
000003a0: 95ae 3f3e 8cdc 3e3c c3db c1be b8fa 48be
000003b0: 30c4 15bd 45c8 053c e4a3 4fbe 579b 2d3e
000003c0: be76 0fbe c815 1ebd a07d df3b a8c3 733d
000003d0: 1a5c 153e 3031 123e 2188 93be 7cbd 10be
000003e0: 4568 893d e3a5 213e ae76 babd b883 08be
000003f0: 3a86 0cbb 4951 72be 995c 63bc a70c 43bd

layers.0.bias f4 [128]
0.20962548 0.26225892 0.03912319 -0.192383 -0.2693953 -0.110080026 0.13382366 -0.11421453
-0.09950751 -0.17416304 0.056708463 0.37267956 -0.107010596 -0.21715644 0.4265658 -0.10624871
-0.072953306 -0.036532532 0.2525063 -0.10783672 -0.22781262 0.2890504 0.123722926 -0.023235334
-0.096533336 -0.18292731 0.07817548 0.21407992 -0.032196254 -0.12906104 -0.104711086 0.08961026
-0.18855685 -0.17880212 -0.12729318 0.064167425 0.109411515 0.18232286 0.25858662 0.20280562
-0.049270313 -0.13887314 0.24756202 0.029445788 -0.061707497 0.15023342 0.18905158 -0.12085034
-0.10484965 -0.034435168 -0.19676332 0.09529571 -0.033091348 -0.050739687 0.23428679 -0.018521814
-0.11229346 -0.18409924 -0.02025746 -0.10264425 -0.089464 0.04036063 0.2916442 -0.080825225
-0.12535764 -0.035286907 -0.03296738 -0.063692115 0.09311158 -0.17833196 0.20945784 0.23791343
-0.033645395 -0.08770326 -0.041778605 0.25966972 -0.06296194 -0.115917586 -0.1575317 -0.1659979
-0.053097192 0.2805553 -0.043498747 -0.0915523 0.17011802 0.48528093 -0.12470286 -0.15405504
0.07473576 -0.10249572 -0.025803661 0.16373129 -0.075777106 0.33549 -0.21187939 -0.1831714
-0.0887785 0.17536695 0.3569434 -0.17860018 0.35324916 0.005696369 0.0116018215 0.2425338
-0.098754995 -0.086768724 -0.067784384 0.036751427 -0.10388106 -0.06305104 0.13893713 -0.014793317
-0.048788894 -0.11628356 -0.048296377 0.100947134 0.08663448 0.102199964 0.16875957 -0.114937864
0.02210786 0.075119644 -0.04431849 -0.010991145 -0.096548244 -0.08713164 -0.06460349 -0.08561945
00000000: 10a8 563e cd46 863e a33f 203d 0d00 45be
00000010: 2eee 89be a371 e1bd 1209 093e 4fe9 e9bd
00000020: 98ca cbbd cc57 32be 2247 683d dbcf be3e
00000030: 5f28 dbbd 425e 5ebe d566 da3e ec98 d9bd
00000040: 8b68 95bd 23a3 15bd 8148 813e 80d9 dcbd
00000050: b647 69be 6afe 933e 7262 fd3d 0758 bebc
00000060: 45b3 c5bd 4c51 3bbe 771a a03d c437 5b3e
00000070: 38e0 03bd 9428 04be c472 d6bd 9685 b73d
00000080: 0c15 41be e717 37be 2559 02be 366a 833d
00000090: 2513 e03d d8b2 3a3e 7765 843e 47ac 4f3e
000000a0: abcf 49bd c334 0ebe e680 7d3e 4b38 f13c
000000b0: 00c1 7cbd cad6 193e bd96 413e 6280 f7bd
000000c0: 6abb d6bd e40b 0dbd 537c 49be 662a c33d
000000d0: cb8a 07bd 6bd4 4fbd e0e8 6f3e 0fbb 97bc
000000e0: 1dfa e5bd 8384 3cbe f9f2 a5bc 2637 d2bd
000000f0: e738 b7bd 3051 253d 6352 953e b287 a5bd
00000100: c15d 00be 0189 10bd ce08 07bd 0371 82bd
00000110: 49b1 be3d a79c 36be 1e7c 563e 949f 733e
00000120: c1cf 09bd c49d b3bd 0b20 2bbd 6ef3 843e
00000130: 31f2 80bd 3366 edbd fd4f 21be 5afb 29be
00000140: 717c 59bd f2a4 8f3e be2b 32bd c67f bbbd
00000150: 6b33 2e3e be76 f83e 3764 ffbd 9bc0 1dbe
00000160: 100f 993d 47e9 d1bd 3362 d3bc 2da9 273e
00000170: 0731 9bbd 58c5 ab3e e9f6 58be 4991 3bbe
00000180: 81d1 b5bd 6593 333e 49c1 b63e f7e2 36be
00000190: 13dd b43e 9ba8 ba3b 9115 3e3c c85a 783e
000001a0: 0f40 cabd cdb3 b1bd 8ad2 8abd aa88 163d
000001b0: 98bf d4bd e720 81bd 8945 0e3e ab5f 72bc
000001c0: ddd6 47bd 1326 eebd 6cd2 45bd 5fbd ce3d
000001d0: 6b6d b13d 374e d13d 4fcf 2c3e 8b64 ebbd
000001e0: 8b1b b53c 54d8 993d 4e87 35bd 3414 34bc
000001f0: 16bb c5bd 1372 b2bd d64e 84bd 4059 afbd

olin.weight f4 [1, 128]
0.0844663 0.09294145 0.035109527 -0.3414937 -0.1599446 0.14672618 0.05982854 -0.31897017
0.072483905 -0.1465722 0.08845831 0.14876385 -0.109740525 -0.05224773 0.27812228 -0.18444766
0.0014343134 -0.016558196 0.03379121 -0.052996304 -0.13508204 0.09994667 0.058749776 -0.109131396
-0.14555135 -0.0760619 0.06825534 0.10461438 0.063095935 -0.10967746 -0.062397256 0.05949069
-0.071197905 -0.13666807 -0.09995562 0.113611385 0.06437169 0.04690439 0.09498317 0.07736636
-0.079838455 0.045804895 0.20691286 -0.055333428 -0.15095219 0.06583172 0.08494719 -0.12672253
-0.055934094 0.13009626 -0.055079587 0.07553035 -0.100905634 -0.039557002 0.05991301 -0.096465
-0.07044481 -0.1841368 0.10537864 0.20309798 0.057055417 0.05181032 0.09620384 0.09772652
0.07706607 -0.12692018 0.12953 0.053441837 0.08337693 -0.16505483 0.07733173 0.08854859
-0.041062538 -0.07970834 0.020427322 0.04676723 0.00012253597 0.22275878 -0.11691363 -0.063369006
0.079434566 0.08609457 -0.069954865 -0.44793802 0.08658503 0.2719854 -0.119572796 -0.084678516
0.072006874 -0.09415952 0.120419465 0.04212493 0.013093166 0.15894826 -0.30247432 -0.28780013
-0.076463535 0.045962602 0.10029912 -0.008109597 0.1564441 -0.19235411 0.09251457 0.115806885
0.075046934 0.13065341 -0.0686539 0.040517654 0.06727588 -0.07943745 0.03395497 -0.058714435
0.061436415 -0.34402275 -0.10797122 0.05180676 0.07280884 0.07534029 0.0768517 0.013898772
-0.38311398 0.02478228 0.10573628 0.01229315 0.071506195 -0.15047657 -0.1742437 -0.08325013
00000000: abfc ac3d 1658 be3d 02cf 0f3d 43d8 aebe
00000010: 84c8 23be 633f 163e c50e 753d 0f50 a3be
00000020: 7172 943d 0617 16be a129 b53d 8d55 183e
00000030: a4bf e0bd b701 56bd 0b66 8e3e d9df 3cbe
00000040: 92ff bb3a 0ea5 87bc a768 0a3d a712 59bd
00000050: f252 0abe d7b0 cc3d 9ba3 703d 4880 dfbd
00000060: 6a0b 15be 57c6 9bbd 75c9 8b3d 1040 d63d
00000070: 7138 813d 939e e0bd 4494 7fbd 82ac 733d
00000080: 35d0 91bd b7f2 0bbe 88b5 ccbd 16ad e83d
00000090: 4ed5 833d d11e 403d 8986 c23d 4172 9e3d
000000a0: 5882 a3bd ea9d 3b3d f7e0 533e 4ea5 62bd
000000b0: 3693 1abe c8d2 863d cbf8 ad3d 8dc3 01be
000000c0: 261b 65bd f437 053e 229b 61bd a8af 9a3d
000000d0: 9da7 cebd 8606 22bd 5867 753d 718f c5bd
000000e0: 5e45 90bd 5b8e 3cbe c2d0 d73d ebf8 4f3e
000000f0: f1b2 693d 0f37 543d 8506 c53d d724 c83d
00000100: d1d4 9d3d 5df7 01be 83a3 043e d4e5 5a3d
00000110: 86c1 aa3d 2204 29be 1960 9e3d f758 b53d
00000120: 3131 28bd 203e a3bd 3357 a73c ff8e 3f3d
00000130: 007d 0039 e11a 643e 6a70 efbd 9cc7 81bd
00000140: 97ae a23d 5a52 b03d 7f44 8fbd 2258 e5be
00000150: 7e53 b13d ac41 8b3e 95e2 f4bd ee6b adbd
00000160: 5778 933d b5d6 c0bd 7b9e f63d 318b 2c3d
00000170: b884 563c 55c3 223e eadd 9abe 8a5a 93be
00000180: ea98 9cbd 4843 3c3d a069 cd3d 1dde 04bc
00000190: e232 203e 7af8 44be 4778 bd3d 292c ed3d
000001a0: 35b2 993d 02ca 053e 6a9a 8cbd d7f5 253d
000001b0: f0c7 893d 1ab0 a2bd 5e14 0b3d 8c7e 70bd
000001c0: c0a4 7b3d c023 b0be 0420 ddbd 5333 543d
000001d0: cd1c 953d 034c 9a3d 6d64 9d3d adb7 633c
000001e0: 8427 c4be 3504 cb3c 438c d83d 3569 493c
000001f0: d771 923d 8816 1abe f16c 32be 0b7f aabd
